tmp.pth (torch, 715694 bytes, 56 tensors)

pre_features f4 [64, 200]
0	0x3cf38865	0.029728124
1	0xbdfb61c3	-0.12274506
2	0x3eb766b2	0.35820538
3	0xbcb4f150	-0.022087723
4	0xbd889b04	-0.06670192
5	0x3dc6650f	0.09687244
6	0x3db065f2	0.086131945
7	0x3cbdd588	0.023173109
8	0xbeddd380	-0.43325424
9	0x3b82d3c0	0.0039925277
10	0xbe0a6eb7	-0.13518797
11	0x3db41e67	0.08794861
12	0x3daba5b6	0.08381216
13	0x3f274556	0.65340173
14	0x3e0de736	0.13857731
15	0x3dadf4fe	0.08493994
16	0x3d80e7e2	0.06294228
17	0xbf01560f	-0.5052194
18	0x3dcea153	0.10089364
19	0xbb52ada0	-0.0032146946
20	0x3ed1d70e	0.40984386
21	0x3d644983	0.05573417
22	0x3e81f721	0.25383857
23	0x3e19b5cc	0.15010756
24	0x3c63f9d0	0.01391454
25	0xbebec898	-0.37262416
26	0x3de76d8c	0.11300191
27	0x3e97ae58	0.296252
28	0x3e40a57c	0.18813127
29	0xbdeb01e1	-0.11474968
30	0xbdc78ddf	-0.09743857
31	0x3e93d2a9	0.28871658
32	0xbe0629a3	-0.1310182
33	0xbd32dd02	-0.0436678
34	0xbed6a8f1	-0.41925767
35	0xbd2e6f26	-0.04258647
36	0x3d723222	0.05912984
37	0x3db2fd24	0.08739689
38	0x3e2ac5f8	0.16677082
39	0xbc216a24	-0.009851966
40	0x3d55e6d4	0.052222088
41	0x3e414c43	0.18876748
42	0x3cf094c2	0.029367808
43	0x3e5eb2cc	0.21747893
44	0xbe61d320	-0.22053194
45	0xbe5240ba	-0.20532504
46	0x3db25f17	0.08709543
47	0xbe20e11a	-0.1571087
48	0x3d0ab34c	0.033862397
49	0x3dabbd83	0.08385756
50	0xbef08a47	-0.46980497
51	0x3c0e0a08	0.008669384
52	0x3e501841	0.20321752
53	0x3df93bb6	0.12169592
54	0xbe209fac	-0.1568591
55	0x3d0a0b70	0.033702314
56	0xbd971752	-0.07377495
57	0xbe9d0ce2	-0.3067389
58	0x3e0d8118	0.13818777
59	0x3e86c2b9	0.26320437
60	0x3edb5ff0	0.42846632
61	0xbe0d90a8	-0.13824713
62	0x3d1be197	0.038056936
63	0xbd9e9652	-0.07743515
64	0xbebc251f	-0.3674707
65	0xbdadd483	-0.08487799
66	0xbe1a3274	-0.15058309
67	0xbe19c59f	-0.15016793
68	0xbe98e098	-0.2985885
69	0x3c934152	0.017975483
70	0x3de7da4e	0.11320935
71	0x3d482f69	0.04887334
72	0x3edb9ec5	0.4289457
73	0xbe49ce98	-0.19707716
74	0x3bf8e449	0.007595573
75	0xbe809594	-0.2511412
76	0x3d81bdb7	0.06335013
77	0xbda86f89	-0.08224399
78	0x3e0c7b15	0.13718827
79	0xbe878446	-0.26468104
80	0x3e079a8c	0.13242549
81	0xbee3ef71	-0.44518617
82	0xbebb1a76	-0.36543626
83	0xbd091c6a	-0.033474363
84	0x3e4fe89e	0.2030358
85	0x3db63860	0.088974714
86	0x3e312254	0.17298251
87	0xbe738b27	-0.23783551
88	0xbd8b7736	-0.06809847
89	0xbccd4f2e	-0.02506217
90	0xbe1055cb	-0.14095227
91	0x3e0f455d	0.13991304
92	0x3e296456	0.16542181
93	0xbed52366	-0.4162857
94	0x3d8cd9ad	0.06877456
95	0xbd8f80c8	-0.07006985
96	0xbe015175	-0.1262873
97	0xbda98b76	-0.08278553
98	0xbf017d0c	-0.5058143
99	0x3e3c4751	0.1838658
100	0xbdc2a2cc	-0.09503707
101	0xbdf58354	-0.119879395
102	0x3e5c6dec	0.21526307
103	0xbe648bae	-0.22318909
104	0xbe41a629	-0.18911041
105	0x3d87c440	0.066292286
106	0x3e41f9fd	0.18943019
107	0xbe4fa3c8	-0.20277321
108	0x3f17c4ac	0.5928447
109	0x3dff4000	0.12463379
110	0x3dbc72e4	0.09201601
111	0xbe6bc50c	-0.23024386
112	0xbe012611	-0.12612177
113	0xbe1579c2	-0.14597228
114	0x3dfe3aec	0.12413582
115	0x3cc4d228	0.024025992
116	0xbe7a84c0	-0.24464703
117	0xbe0ab912	-0.13547161
118	0xbe18dae0	-0.14927244
119	0x3f3c73d0	0.73614216
120	0xbe2ad712	-0.16683605
121	0x3e97b466	0.2962982
122	0x3e96d42e	0.29458755
123	0xbdc2cd39	-0.09511799
124	0xbd1cf2ee	-0.038317613
125	0x3efbfff4	0.49218714
126	0xbe91e726	-0.28496665
127	0xbed49ea6	-0.4152729
128	0x3f14855e	0.58016
129	0xbbfb12b6	-0.0076621426
130	0xbe5bc8c1	-0.214633
131	0xbd665068	-0.056229025
132	0x3e337bf3	0.17527752
133	0xbf215a46	-0.6302837
134	0x3d4e94d8	0.050434917
135	0x3e1f7af1	0.15574242
136	0x3eafaaa2	0.3430987
137	0x3ec5743b	0.3856524
138	0x3e4473d0	0.19184804
139	0xbe8cd024	-0.2750255
140	0xbd94c4de	-0.07264112
141	0xbe09793a	-0.1342515
142	0xbdb78cbc	-0.0896239
143	0x3dc5ba4f	0.09654676
144	0xbca8a034	-0.020584203
145	0x3da9dca8	0.0829404
146	0xbdd793dc	-0.10526249
147	0x3e3d37dc	0.1847834
148	0xbe0a9fbe	-0.135375
149	0xbde212c0	-0.110387325
150	0xbc51b744	-0.012800042
151	0x3e85a196	0.26099843
152	0xbe25fc0b	-0.16209428
153	0x3e761cba	0.24034396
154	0x3e9ec8ec	0.31012666
155	0x3e2517b8	0.16122329
156	0x3d9cfd1b	0.076654635
157	0x3e702da8	0.23454916
158	0xbec7b349	-0.3900397
159	0x3f45625a	0.771032
160	0xbce87b38	-0.028379068
161	0xbcc82d34	-0.024435617
162	0xbe2d8834	-0.16946489
163	0xbf025f36	-0.5092653
164	0xbea9ac89	-0.33139446
165	0xbee412eb	-0.44545683
166	0xbaef31cd	-0.0018249095
167	0xbe8dc8a6	-0.27692145
168	0x3d7328fe	0.059365265
169	0xbe97f119	-0.2967613
170	0xbeac1507	-0.33609793
171	0x3f1bc874	0.6085274
172	0x3d1dd2f0	0.038531244
173	0xbdf011be	-0.11722134
174	0xbe0dc31e	-0.13843963
175	0x3e254a19	0.16141547
176	0xbd4b5f2a	-0.049651302
177	0x3e306c1c	0.1722874
178	0x3e1ec39a	0.15504304
179	0x3e708b4e	0.2349064
180	0x3e0ae669	0.13564457
181	0xbdceb230	-0.1009258
182	0x3afcfa80	0.0019300729
183	0xbe4ba9a3	-0.1988893
184	0x3e1b6412	0.15174893
185	0xbe0a1d30	-0.13487697
186	0x3e6637fa	0.22482291
187	0x3dd422e3	0.103582166
188	0xbdad9f90	-0.084777
189	0xbe9f657b	-0.3113211
190	0xbe5edeac	-0.2176463
191	0xbbc8e734	-0.006131077
192	0xbe45befa	-0.19311133
193	0x3da43286	0.08017449
194	0x3d146008	0.036224395
195	0xbda6ab87	-0.08138185
196	0x3e3684ad	0.1782405
197	0xbe4428c8	-0.19156182
198	0xbd966b5f	-0.07344698
199	0xbb91e764	-0.0044526327
200	0x3e0b82ee	0.13624164
201	0xbe2548c3	-0.16141038
202	0xbcea2458	-0.028581783
203	0xbe82a497	-0.25516197
204	0x3efe7c86	0.4970438
205	0x3e96bff7	0.29443333
206	0x3e6ba8cf	0.23013614
207	0xbe41ce40	-0.18926334
208	0x3dc67d2b	0.09691843
209	0xbe52f6ce	-0.20601961
210	0x3ca0a9e6	0.019612264
211	0xbe206f43	-0.15667443
212	0xbe5004d0	-0.20314336
213	0xbddab668	-0.106793225
214	0x3e49e690	0.19716859
215	0x3e6d78b1	0.23190571
216	0xbdb0f8c4	-0.08641198
217	0x3e5c5232	0.2151573
218	0xbee845bc	-0.45365703
219	0xbea5332e	-0.3226561
220	0xbddecb53	-0.10878625
221	0x3e1c64cc	0.15272826
222	0xbed78bfe	-0.42098993
223	0x3ea3e776	0.32012528
224	0x3b104f20	0.0022019818
225	0x3e15d8ac	0.14633435
226	0xba1cd962	-0.00059833203
227	0xbd850e59	-0.06496877
228	0xbe44cdba	-0.19219103
229	0xbe8ace91	-0.27110723
230	0xbdb95398	-0.09049147
231	0xbf072a71	-0.52799135
232	0xbe03077a	-0.12795821
233	0x3f60bfbc	0.87792563
234	0x3efcf878	0.49408317
235	0xbce92354	-0.028459229
236	0x3edf6f28	0.43639493
237	0x3e93d2b2	0.28871685
238	0xbe2f1e83	-0.17101483
239	0xbdbe6d6c	-0.09298214
240	0x3dea7924	0.11448887
241	0x3d9f567b	0.07780167
242	0x3f300bc0	0.6876793
243	0xbe031302	-0.1280022
244	0xbdd67ca8	-0.10472995
245	0x3ea95e14	0.33079588
246	0xbe21d772	-0.15804842
247	0xbd7b1408	-0.0612984
248	0xbe2e974c	-0.17049903
249	0x3cdbe575	0.026842812
250	0x3dc54b78	0.09633535
251	0x3e93742d	0.28799573
252	0xbd0d55dc	-0.03450571
253	0x3e023fe1	0.1271968
254	0x3d24e93e	0.0402615
255	0x3e21c856	0.15799078

pre_weight1 f4 [64, 1]
0	0x3f800257	1.0000714
1	0x3f7ffeb7	0.9999804
2	0x3f7ff67d	0.99985486
3	0x3f7fe829	0.99963623
4	0x3f7fffe6	0.99999845
5	0x3f7ff21b	0.999788
6	0x3f80021e	1.0000646
7	0x3f800045	1.0000082
8	0x3f7ff899	0.99988705
9	0x3f800045	1.0000082
10	0x3f7ff870	0.9998846
11	0x3f7ff1d1	0.9997836
12	0x3f800362	1.0001032
13	0x3f7ff9b6	0.99990404
14	0x3f7ffc65	0.999945
15	0x3f7ff464	0.99982285
16	0x3f7ffaf4	0.999923
17	0x3f7feb01	0.9996796
18	0x3f7ff78d	0.9998711
19	0x3f7ffdc8	0.99996614
20	0x3f8001e6	1.0000579
21	0x3f7feb4e	0.9996842
22	0x3f800195	1.0000483
23	0x3f7ffd07	0.99995464
24	0x3f7fed73	0.99971694
25	0x3f7ff420	0.9998188
26	0x3f7ff6a1	0.999857
27	0x3f7ff6ad	0.9998577
28	0x3f7ff6a4	0.9998572
29	0x3f7ff73e	0.99986637
30	0x3f7ffd45	0.99995834
31	0x3f8007ad	1.0002342
32	0x3f7ffd75	0.9999612
33	0x3f7fe98d	0.99965745
34	0x3f7fed73	0.99971694
35	0x3f7ff151	0.99977595
36	0x3f7fee5f	0.999731
37	0x3f800330	1.0000973
38	0x3f7ffa35	0.9999116
39	0x3f800097	1.000018
40	0x3f7ff4c7	0.99982876
41	0x3f7ff764	0.99986863
42	0x3f7ff224	0.9997885
43	0x3f7ffde0	0.9999676
44	0x3f80027b	1.0000757
45	0x3f7ffc97	0.99994797
46	0x3f800738	1.0002203
47	0x3f7ff7e0	0.999876
48	0x3f7ff7ea	0.9998766
49	0x3f7fe1ea	0.9995409
50	0x3f80007a	1.0000145
51	0x3f80011c	1.0000339
52	0x3f7ff8f3	0.9998924
53	0x3f7fe665	0.9996093
54	0x3f7ffc0a	0.99993956
55	0x3f7fed28	0.99971247
56	0x3f7ff87f	0.9998855
57	0x3f7ff18a	0.99977934
58	0x3f7ff4ba	0.999828
59	0x3f7fe9b1	0.9996596
60	0x3f80050c	1.000154
61	0x3f7fffc1	0.99999624
62	0x3f7ffcb5	0.99994975
63	0x3f7fdf65	0.9995025

0.global_feat.0.ConvLSTM.cell_list.0.conv.weight f4 [128, 33, 1, 3]
0	0x3beb18e1	0.0071745967
1	0xbe6ad19f	-0.22931527
2	0x3d4a57d3	0.049400162
3	0xb00d2a2f	-5.135545e-10
4	0xb10657da	-1.9549504e-09
5	0xb106d0b4	-1.96182e-09
6	0xb84fe3d7	-4.956484e-05
7	0xb3b3b8dc	-8.368963e-08
8	0x301fcbe1	5.813359e-10
9	0x3715ea49	8.935641e-06
10	0x30fc25e2	1.834618e-09
11	0x32eb8a5e	2.7420523e-08
12	0xafaa8d77	-3.1023337e-10
13	0x30512f24	7.610075e-10
14	0xb7da2450	-2.6004534e-05
15	0xb1314fd3	-2.5802265e-09
16	0xb2eb72ba	-2.7409772e-08
17	0xb0a321ee	-1.1869454e-09
18	0x374e42e7	1.2294134e-05
19	0x38082944	3.246336e-05
20	0x32186892	8.871341e-09
21	0xb0bba569	-1.3653053e-09
22	0xb110d709	-2.1076991e-09
23	0x3016ba6c	5.4834604e-10
24	0x2ff99403	4.5398005e-10
25	0x3232f458	1.0416521e-08
26	0x30d4321f	1.5439275e-09
27	0x308e3fde	1.0350012e-09
28	0x37fea11d	3.0354184e-05
29	0xafeaac41	-4.2686746e-10
30	0x30037f23	4.7838195e-10
31	0x302f1010	6.3687455e-10
32	0xaad2b192	-3.7426708e-13
33	0x38c19f8f	9.232677e-05
34	0x327d144c	1.4731153e-08
35	0xb0dbb55a	-1.598589e-09
36	0xafe0de33	-4.0903245e-10
37	0x2f57d569	1.9629955e-10
38	0xaff8df4b	-4.5269596e-10
39	0xaff4d97e	-4.453788e-10
40	0x37e1a80f	2.6900349e-05
41	0xb0138e61	-5.368062e-10
42	0xafbb77ae	-3.410014e-10
43	0x380a0e04	3.2914817e-05
44	0xaffca525	-4.5955875e-10
45	0x3173da82	3.5485361e-09
46	0x384fe3d7	4.956484e-05
47	0x2ffd011c	4.602122e-10
48	0x32a13b96	1.8769963e-08
49	0x2ff279a2	4.410597e-10
50	0x2fb0804e	3.210538e-10
51	0x2fb143c6	3.2244268e-10
52	0xb2c7d77a	-2.3264636e-08
53	0x323a02d2	1.0827266e-08
54	0x32d181de	2.4389859e-08
55	0xb001d674	-4.7234683e-10
56	0xb01f41d0	-5.793739e-10
57	0xb305c03a	-3.1141305e-08
58	0x3a065ef2	0.0005125842
59	0xb4074ab9	-1.2600039e-07
60	0x2fb15194	3.2254077e-10
61	0xb0c5d32f	-1.4393658e-09
62	0x2ff77d1f	4.5017942e-10
63	0xb5000bed	-4.770107e-07
64	0xae6c4811	-5.3724195e-11
65	0x32eaf37f	2.7351915e-08
66	0xb4547750	-1.9787444e-07
67	0xb0ce6ea5	-1.501992e-09
68	0x30b7ff93	1.3387641e-09
69	0x2de0e30a	2.5566677e-11
70	0xb0aa51f7	-1.2392424e-09
71	0xb031ed09	-6.472907e-10
72	0xb04f5b45	-7.5435863e-10
73	0xaeeeaa08	-1.08531906e-10
74	0x37edb6df	2.8337758e-05
75	0xb0b71636	-1.3321315e-09
76	0x36166484	2.241025e-06
77	0xb073a477	-8.8636604e-10
78	0x308c1e51	1.0194957e-09
79	0xb199c84e	-4.475658e-09
80	0x38c6213a	9.447565e-05
81	0xb7f9b3c3	-2.9766821e-05
82	0xb267b0ef	-1.34862e-08
83	0xafbddbcf	-3.4535083e-10
84	0xb4af598f	-3.2661453e-07
85	0xb7614199	-1.3426318e-05
86	0xb0520250	-7.640084e-10
87	0x32ea5bae	2.7282876e-08
88	0x327c4c8c	1.4685735e-08
89	0x2f99d63f	2.798277e-10
90	0xb8022961	-3.1032952e-05
91	0x35851904	9.916553e-07
92	0x38c4f4a6	9.3915776e-05
93	0xaffba1c2	-4.577157e-10
94	0xaec8c467	-9.129835e-11
95	0x30a18570	1.1752217e-09
96	0xb7c5922c	-2.3552297e-05
97	0xb20d54d5	-8.226569e-09
98	0x34eff314	4.4694082e-07
99	0x3bcb6913	0.006207594
100	0x3b1c3e23	0.0023840747
101	0x3ddf0e6f	0.10891425
102	0xb035e738	-6.6176e-10
103	0xb267dd88	-1.349634e-08
104	0xb265a5f9	-1.3367292e-08
105	0xb2c710bb	-2.3174257e-08
106	0x2ea62513	7.555392e-11
107	0x329f88fc	1.857233e-08
108	0x340955b9	1.2790305e-07
109	0x2d9751d1	1.7203046e-11
110	0x31406101	2.7994818e-09
111	0xb7aeb451	-2.0826383e-05
112	0xb03387e6	-6.5312944e-10
113	0xb7a293f6	-1.9380805e-05
114	0x320c673a	8.1725435e-09
115	0xb0a4911d	-1.1973814e-09
116	0x38327edc	4.2556654e-05
117	0x32870e7f	1.572266e-08
118	0x318882f6	3.9730095e-09
119	0x30174a0b	5.50387e-10
120	0x30a54844	1.2025869e-09
121	0x3082bae6	9.511865e-10
122	0x3086c28a	9.805075e-10
123	0xb0a49c99	-1.1977078e-09
124	0x37d804b9	2.5751406e-05
125	0xb15c42d7	-3.2052208e-09
126	0xb6899f6a	-4.1014764e-06
127	0x38bc3151	8.9737245e-05
128	0xae81a0bd	-5.894794e-11
129	0x318558ad	3.8808907e-09
130	0xb07565b2	-8.9275e-10
131	0x307f9d3c	9.2991903e-10
132	0x2f903d34	2.6236935e-10
133	0xaf2a5d50	-1.5494561e-10
134	0x35847b5d	9.87067e-07
135	0x3202783f	7.594337e-09
136	0xb54edfaf	-7.706648e-07
137	0xb067b864	-8.4299345e-10
138	0x313babfa	2.7309839e-09
139	0xb4586723	-2.0154089e-07
140	0x36ef65fa	7.1346267e-06
141	0xb136e755	-2.6615983e-09
142	0x30877232	9.854999e-10
143	0x307aaba1	9.119337e-10
144	0xaf1a74c6	-1.4047705e-10
145	0xafca8ea1	-3.684493e-10
146	0xaf906d42	-2.627108e-10
147	0x341b15c7	1.4443422e-07
148	0xaf1b209b	-1.4108752e-10
149	0x2f8eb682	2.595933e-10
150	0xb73c3646	-1.121831e-05
151	0xb45888c6	-2.0166325e-07
152	0xb0a02e5b	-1.1654707e-09
153	0xaf23cfe9	-1.4898628e-10
154	0xaee7f809	-1.0548724e-10
155	0x38d4b6a1	0.00010142965
156	0x3080c337	9.368709e-10
157	0x343aebb2	1.7408345e-07
158	0x30638718	8.27741e-10
159	0xb63f327e	-2.8490608e-06
160	0xaffe7745	-4.6287077e-10
161	0xb2ada916	-2.0216742e-08
162	0x2ff491a9	4.448684e-10
163	0xaf9f914c	-2.902517e-10
164	0xb0517f51	-7.6214685e-10
165	0x3002db91	4.7605747e-10
166	0x37f6f683	2.9440276e-05
167	0xae90ee3f	-6.590683e-11
168	0x307efc2f	9.2763036e-10
169	0xb2030144	-7.625491e-09
170	0x374cc054	1.2204127e-05
171	0x32a17647	1.8796653e-08
172	0xae09a20e	-3.1294127e-11
173	0x30ff71f5	1.858608e-09
174	0x2e860bee	6.0957336e-11
175	0x2e6c4811	5.3724195e-11
176	0xb2c454ef	-2.2856026e-08
177	0xb9b3ffe3	-0.0003433219
178	0x328aacab	1.6143835e-08
179	0xb03e41da	-6.921518e-10
180	0x327ae9a9	1.4605043e-08
181	0x34ef0b75	4.4525555e-07
182	0x30648163	8.3129786e-10
183	0x3053d8bb	7.7069345e-10
184	0xb8d4c281	-0.00010145177
185	0xafa915b3	-3.075634e-10
186	0x30505e65	7.58041e-10
187	0x2f3092c3	1.6059247e-10
188	0xb2914a76	-1.6914083e-08
189	0x2ec0e86d	8.772436e-11
190	0x31f34301	7.0798483e-09
191	0xb165ac66	-3.3421883e-09
192	0xafd597a2	-3.8852216e-10
193	0x34a8f5dd	3.1471328e-07
194	0x307f117f	9.2793323e-10
195	0xb96a65cd	-0.00022353903
196	0x312b68db	2.4943378e-09
197	0x302dc4c9	6.321668e-10
198	0xbd4e22f7	-0.050326314
199	0x3dfbca13	0.12294402
200	0x3d165462	0.036701567
201	0x33acdc89	8.049489e-08
202	0xb0ae21da	-1.2669787e-09
203	0xae3f31fc	-4.3472767e-11
204	0x36c05b16	5.7326497e-06
205	0xba02c88f	-0.0004988992
206	0xb1a3a852	-4.76306e-09
207	0xb44d3f3f	-1.9115122e-07
208	0x301429bc	5.3901394e-10
209	0x2f97158b	2.7482047e-10
210	0xb07f348a	-9.284312e-10
211	0xb139ac88	-2.7019116e-09
212	0xad8a2cd3	-1.570869e-11
213	0xb02c5bcf	-6.2703703e-10
214	0x2f43cb4b	1.7807371e-10
215	0xb537d621	-6.848441e-07
216	0x31aad1e9	4.971515e-09
217	0x38d4e250	0.00010151102
218	0x3047d743	7.2701684e-10
219	0x308d194e	1.0266292e-09
220	0xafa22ba5	-2.949864e-10
221	0xb0a3ee3a	-1.1927519e-09
222	0x2e8af692	6.319313e-11
223	0xb6b45a72	-5.3749472e-06
224	0xb0e52765	-1.667314e-09
225	0xaff22420	-4.4045212e-10
226	0x2fe56ca3	4.1732048e-10
227	0xb0294f0f	-6.159419e-10
228	0xb97f1248	-0.00024325505
229	0xb2454d39	-1.1484468e-08
230	0xacf2c370	-6.8997516e-12
231	0x2f42781e	1.7686871e-10
232	0xb29e273b	-1.841146e-08
233	0xb033f2b4	-6.546472e-10
234	0xb669edaf	-3.4858056e-06
235	0xb06d12f4	-8.624703e-10
236	0x2fbf3c36	3.478548e-10
237	0xb0c40292	-1.4261607e-09
238	0x32d472b9	2.4732218e-08
239	0xb1aad1e9	-4.971515e-09
240	0xb38f41f1	-6.670951e-08
241	0x38cd46d3	9.788354e-05
242	0xafaf665a	-3.190504e-10
243	0xaf189dab	-1.3880334e-10
244	0x3813c817	3.523388e-05
245	0x37adf454	2.0736981e-05
246	0xafc47bb7	-3.5740097e-10
247	0xb27fa81e	-1.4881179e-08
248	0xb17cf9b2	-3.6812762e-09
249	0x311c415f	2.2738147e-09
250	0xb007e3ce	-4.9436444e-10
251	0x305060ae	7.580735e-10
252	0xafba59bf	-3.389697e-10
253	0x2f13a350	1.3427592e-10
254	0xb28d022e	-1.6415552e-08
255	0xba008ccd	-0.00049037935

0.global_feat.0.ConvLSTM.cell_list.0.conv.bias f4 [128]
0	0xbc95816c	-0.01825019
1	0x3c57d742	0.01317388
2	0xbc45690d	-0.012048972
3	0xbcf08ec1	-0.029364945
4	0xbc2f3941	-0.010694803
5	0xbc955fa6	-0.018234085
6	0xbb8c0e9a	-0.0042742016
7	0x3c018def	0.007907375
8	0xb981b99f	-0.00024743096
9	0x3c85dbfd	0.01634025
10	0xbba51a0e	-0.0050385064
11	0xbb0e496a	-0.0021711239
12	0xbc70211a	-0.0146563295
13	0xbaee4c65	-0.0018180726
14	0xbc16033d	-0.0091560455
15	0xbca96829	-0.02067955
16	0xbb300e2d	-0.0026863918
17	0xbb956023	-0.0045585795
18	0xbb468ef7	-0.0030297616
19	0x3c057bad	0.008147162
20	0xbc547ac3	-0.012968722
21	0xbbd48b94	-0.0064863656
22	0xbc8087de	-0.015689787
23	0xbbeeb808	-0.007285122
24	0xbc394da0	-0.011310011
25	0xbc411896	-0.011785647
26	0xbb7c12b8	-0.0038463306
27	0xbc4100cd	-0.011779976
28	0xbbcd6f20	-0.0062693506
29	0xbcaa641a	-0.020799685
30	0xbc3a3837	-0.011365942
31	0xbb9fdbe1	-0.0048785065
32	0x329891c8	1.7761423e-08
33	0x311d0ad5	2.2852664e-09
34	0x2fb59972	3.3032738e-10
35	0xaedaa611	-9.9429916e-11
36	0xb07ffcb5	-9.312758e-10
37	0x328acee4	1.6159397e-08
38	0xb148ac8c	-2.9201912e-09
39	0xb31b227d	-3.6120117e-08
40	0x387d0668	6.0325867e-05
41	0x308e3fde	1.0350012e-09
42	0xafd7109d	-3.9120077e-10
43	0xb2c7ee95	-2.3275144e-08
44	0xb1ef0391	-6.956221e-09
45	0xb8750b53	-5.84231e-05
46	0x2eaeef29	7.955087e-11
47	0xafb7fc64	-3.346684e-10
48	0xb10698a0	-1.9586324e-09
49	0x37fd3447	3.0184294e-05
50	0x2e8d7b08	6.4337924e-11
51	0xb17b3b73	-3.65591e-09
52	0x311d69ef	2.2906723e-09
53	0x3543e5bb	7.297746e-07
54	0x34c606e2	3.6885382e-07
55	0x2fadd5aa	3.1620334e-10
56	0xafa9cf0d	-3.088804e-10
57	0xb0262cf9	-6.045436e-10
58	0xaf72ecc4	-2.2093888e-10
59	0xb6b4bce3	-5.3864073e-06
60	0x31163639	2.1858695e-09
61	0xb0c81c2d	-1.4559923e-09
62	0x39a3da16	0.0003125227
63	0x326ef6a9	1.3909507e-08
64	0xbb1d11cf	-0.0023966914
65	0x3beccc99	0.0072265384
66	0xbb87f7ad	-0.0041493983
67	0xbcc7a4e4	-0.024370618
68	0xbc2e4f2e	-0.010638995
69	0x3be00291	0.0068362434
70	0xbb8c3a47	-0.004279408
71	0x3d04d956	0.03243383
72	0xb97950ce	-0.00023776593
73	0x3c778ced	0.015109283
74	0xba73bc90	-0.00092978124
75	0xbb0e698b	-0.002173039
76	0xbc5fc578	-0.01365792
77	0xbaee77be	-0.0018193645
78	0x3bc58881	0.0060282354
79	0xbca6f178	-0.020378813
80	0x3c8d6ce7	0.017263843
81	0xbb9582cf	-0.0045627127
82	0xbb467d7b	-0.0030287195
83	0x3c6fe320	0.014641553
84	0xbc4ee260	-0.012627214
85	0xbbd5373a	-0.0065068277
86	0xbc608ed1	-0.013705925
87	0xbbef03ec	-0.0072941687
88	0xbc0d7ee5	-0.008636211
89	0xbcc37f20	-0.023864329
90	0xbb7c47fb	-0.0038495052
91	0xbcd0cbea	-0.025487859
92	0xbbd1c2f8	-0.006401416
93	0xbc2cbec7	-0.010543532
94	0xbc339143	-0.010959926
95	0xbba00788	-0.0048837103
96	0xbda93843	-0.08262684
97	0xbd41401d	-0.047180284
98	0xbc5793e4	-0.0131578185
99	0xbdb76fbb	-0.08956858
100	0x3cddd051	0.027076872
101	0xbcbaf3ea	-0.022821385
102	0x39bd0395	0.00036051558
103	0xbe078edb	-0.13238089
104	0x3b553027	0.0032529922
105	0x3e1e149a	0.15437546
106	0x3ca72d57	0.020407362
107	0xba92916e	-0.0011182257
108	0x3d692d7e	0.05692815
109	0xbb64f3b8	-0.0034935307
110	0xbd14e465	-0.036350626
111	0x3d356282	0.044283397
112	0x3d5d32f2	0.054003663
113	0xbaf168a9	-0.0018418032
114	0x3be506df	0.0069893445
115	0xbd3e4eef	-0.046461996
116	0xbd42e982	-0.04758597
117	0x3aaf9e45	0.0013398608
118	0xbd9af130	-0.07565534
119	0xbaa4223f	-0.0012522413
120	0xbd886dd8	-0.06661576
121	0x3d8bd521	0.068277605
122	0xba102e80	-0.0005500093
123	0xbdc95780	-0.098311424
124	0x3d00d59a	0.031453706
125	0xbd31c943	-0.04340483
126	0x3cbec378	0.023286566
127	0xb9cb06d7	-0.00038724273

0.global_feat.0.globalnet.0.weight f4 [64, 32, 9, 1]
0	0x38b134e6	8.449871e-05
1	0x39ae56c9	0.00033252526
2	0x397e6cd9	0.00024263877
3	0x3706c5b2	8.033052e-06
4	0xb9783f72	-0.00023674758
5	0xb9e7ad45	-0.0004418885
6	0x392f4c36	0.00016717691
7	0x38ac5810	8.218002e-05
8	0xb81abe31	-3.689359e-05
9	0x3862afa9	5.4046195e-05
10	0x38b58048	8.654647e-05
11	0x38be8ef8	9.086536e-05
12	0x35e8bef9	1.7340927e-06
13	0x39181386	0.00014503123
14	0x3989699b	0.00026209358
15	0x389626c7	7.15978e-05
16	0xb72849b5	-1.0030742e-05
17	0xb8dc16f4	-0.00010494693
18	0x3852adc5	5.0229737e-05
19	0xb8a68ca5	-7.941694e-05
20	0x36f6c32f	7.3540937e-06
21	0x38c04aaf	9.169184e-05
22	0x3820aa4f	3.8305585e-05
23	0x380b6187	3.3231012e-05
24	0x3927cb26	0.0001600204
25	0x38969c69	7.181691e-05
26	0xb83dcaa9	-4.5249853e-05
27	0x387f1bad	6.0822513e-05
28	0x39d98de2	0.00041495176
29	0x39f1504e	0.00046026934
30	0x3a0aa3e3	0.0005288703
31	0x39922e63	0.0002788185
32	0x39862dc7	0.00025592578
33	0x3a265102	0.00063444686
34	0x39bf0fe5	0.000364422
35	0x399b8e66	0.0002967
36	0xb7ec958a	-2.8203027e-05
37	0xb8c7c2c8	-9.52534e-05
38	0xb8a71ad9	-7.968181e-05
39	0xb82fbe3b	-4.1900417e-05
40	0x36d6b73e	6.399029e-06
41	0x36b81675	5.4862417e-06
42	0xb86c63cd	-5.635973e-05
43	0xb8296c32	-4.0393505e-05
44	0xb7b3668c	-2.1386215e-05
45	0xb8dd39ec	-0.0001054889
46	0x38229888	3.8765866e-05
47	0xb8364351	-4.3454875e-05
48	0xb936f51a	-0.0001744818
49	0xb8ec8cf5	-0.00011279612
50	0xb802b24d	-3.116047e-05
51	0x37e200e1	2.6941709e-05
52	0xb8b35b79	-8.552423e-05
53	0xb81dcc15	-3.7621783e-05
54	0x37cab42f	2.4164181e-05
55	0x3815a0e5	3.5674213e-05
56	0x37f21ee2	2.8863029e-05
57	0x37c0720a	2.2941287e-05
58	0x38029120	3.1129573e-05
59	0x382e3616	4.1535204e-05
60	0x3770bb82	1.4348772e-05
61	0x3807bacf	3.2360487e-05
62	0x38134783	3.511413e-05
63	0xb823a883	-3.9019167e-05
64	0xb81042f2	-3.4394623e-05
65	0xb9ee0be0	-0.00045403745
66	0xba24d48a	-0.00062877743
67	0xba0bcb12	-0.0005332689
68	0xb9ecc113	-0.0004515728
69	0xba34d5f9	-0.00068983395
70	0xba7b144e	-0.0009577916
71	0xb8a3f6b3	-7.818397e-05
72	0x37ca6053	2.4125131e-05
73	0x380c2ee6	3.342228e-05
74	0x37ea549e	2.7934377e-05
75	0x38264116	3.96381e-05
76	0x37db1815	2.6118048e-05
77	0x37e719ab	2.7549298e-05
78	0x359f136e	1.1852078e-06
79	0x37a1a55e	1.92697e-05
80	0x373acc57	1.11340405e-05
81	0x3850d381	4.9788043e-05
82	0x399379b5	0.00028128704
83	0x39db7f6b	0.0004186587
84	0x3903d291	0.00012571576
85	0xb91daf5a	-0.0001503801
86	0xb94d9afe	-0.00019608063
87	0x39edd869	0.000453654
88	0x399cdab0	0.00029917574
89	0xb9329dc7	-0.0001703418
90	0xb721c80a	-9.642923e-06
91	0x3919aa02	0.0001465455
92	0x39811963	0.00024623712
93	0xb8c6bd20	-9.476603e-05
94	0xb933e9ab	-0.00017157818
95	0xb999e4c0	-0.00029352866
96	0x3947c4f5	0.00019051491
97	0x394d364c	0.0001957055
98	0x38cfa948	9.90206e-05
99	0xb7ae83e0	-2.0803825e-05
100	0xb804e581	-3.1684995e-05
101	0xb7c85b6e	-2.3884433e-05
102	0xb7d325d9	-2.5170784e-05
103	0xb786c461	-1.606549e-05
104	0xb79d5152	-1.8753726e-05
105	0xb739aaa3	-1.1066589e-05
106	0xb7313ef2	-1.0564678e-05
107	0xb5a46fe4	-1.2251517e-06
108	0x38159bc9	3.5669455e-05
109	0x38ba8d0d	8.895444e-05
110	0x3902af20	0.00012463005
111	0x38bd09fc	9.014082e-05
112	0x3845e084	4.7177557e-05
113	0x37f78724	2.9507624e-05
114	0x38d73609	0.00010262064
115	0x39005334	0.00012238027
116	0x38dba5d6	0.00010473623
117	0xb69df301	-4.707254e-06
118	0xb73a37fc	-1.1099499e-05
119	0xb75b505d	-1.3072128e-05
120	0xb557a342	-8.033131e-07
121	0x35d04855	1.5518259e-06
122	0x368dc114	4.2246047e-06
123	0xb7695c94	-1.3909437e-05
124	0xb6ce6250	-6.1507235e-06
125	0xb6c3602f	-5.82265e-06
126	0xb8fc98ae	-0.00012044735
127	0xb96b427c	-0.00022436114
128	0xb9ade8f4	-0.00033170695
129	0xb8c7a5ea	-9.519963e-05
130	0xb6523633	-3.1323987e-06
131	0x38c5f1d2	9.4387346e-05
132	0xb965162f	-0.00021847406
133	0xb9984088	-0.0002903978
134	0x38a2e682	7.7676974e-05
135	0x3903d033	0.00012570694
136	0x380bedb7	3.336157e-05
137	0x37c89248	2.3909975e-05
138	0x39910997	0.000276637
139	0x39c13d6c	0.00036857591
140	0x39d8b6cc	0.00041334925
141	0xb85d2978	-5.2729127e-05
142	0xb85a0fd8	-5.1990006e-05
143	0xb8473215	-4.749194e-05
144	0x3919c027	0.000146628
145	0xb72eb8e0	-1.0414253e-05
146	0xb921f8c5	-0.0001544683
147	0xb841bcd1	-4.6190635e-05
148	0x38e239ca	0.00010787284
149	0x39fa56eb	0.00047748475
150	0xb9e91832	-0.0004445925
151	0xb9a5b82b	-0.00031608468
152	0xb9cfaa1b	-0.00039608855
153	0x379834fb	1.8144483e-05
154	0x37f6ecdd	2.9435783e-05
155	0x37d8974b	2.5819658e-05
156	0x37e6cdc4	2.7513954e-05
157	0x37e1774c	2.6877642e-05
158	0x382af50f	4.0759387e-05
159	0x37033fb3	7.82304e-06
160	0x3800b1fd	3.0683343e-05
161	0x37690db8	1.3891076e-05
162	0x361e4fdb	2.3590317e-06
163	0x36d99771	6.484734e-06
164	0x3726bd85	9.938497e-06
165	0xb5bbd604	-1.3994872e-06
166	0xb6dbb458	-6.5477034e-06
167	0xb70a0b2d	-8.228043e-06
168	0x375337c9	1.25895685e-05
169	0x34aa5388	3.1725745e-07
170	0x33c9e524	9.401472e-08
171	0x38fa2fcd	0.000119298325
172	0x388e67f6	6.790452e-05
173	0x39352bdf	0.00017277848
174	0x392e807b	0.00016641796
175	0x3827b2d1	3.998244e-05
176	0xb7e73015	-2.7559736e-05
177	0x385595a6	5.092253e-05
178	0x384eb81f	4.9285703e-05
179	0x38d1e87e	0.00010009202
180	0xb8191896	-3.650094e-05
181	0xb953bdcb	-0.00020193231
182	0xb94b866e	-0.00019409668
183	0xb60dce5e	-2.1130759e-06
184	0x3805b824	3.1881165e-05
185	0x388c1cb0	6.681064e-05
186	0xb91914bb	-0.0001459894
187	0xb7ef3a04	-2.8518036e-05
188	0x3868b601	5.5482615e-05
189	0x372737e9	9.966993e-06
190	0x37c0eff8	2.2999928e-05
191	0x3771717c	1.4391142e-05
192	0x3703657e	7.831839e-06
193	0x378a9205	1.6518878e-05
194	0x36b9868d	5.5290934e-06
195	0x373b9d04	1.1182627e-05
196	0x37149344	8.855775e-06
197	0x374876dc	1.1948603e-05
198	0x37df82b2	2.6644531e-05
199	0x38691276	5.5568722e-05
200	0xb8508476	-4.971443e-05
201	0xb858215c	-5.152948e-05
202	0xb7b8a026	-2.2009084e-05
203	0xb89e5a70	-7.5508724e-05
204	0xb93af8df	-0.00017831054
205	0xb843bb33	-4.6665966e-05
206	0x37312c5f	1.0560353e-05
207	0xb6fbe5dc	-7.507142e-06
208	0xb78eda8b	-1.7029486e-05
209	0xb70bec43	-8.340055e-06
210	0xb69a4b39	-4.5983147e-06
211	0xb75d6afb	-1.3197535e-05
212	0xb787aff9	-1.6175198e-05
213	0xb7a76a50	-1.9957457e-05
214	0xb74806ed	-1.19225415e-05
215	0xb7a3fe2f	-1.9549478e-05
216	0x37b2d5cc	2.131881e-05
217	0x3935c7b3	0.00017335899
218	0x38357033	4.3258256e-05
219	0x3862cdaa	5.407414e-05
220	0x381d69b4	3.753016e-05
221	0xb8a4158d	-7.8241435e-05
222	0x3885272c	6.3492305e-05
223	0x392a3417	0.00016231868
224	0x38a699f6	7.944174e-05
225	0xb7e79412	-2.7606296e-05
226	0xb7a29b1a	-1.938413e-05
227	0x38bc7f27	8.9882225e-05
228	0xb9a0f235	-0.00030698036
229	0xb995595b	-0.0002848607
230	0xb82ed0c9	-4.167928e-05
231	0xba0ac2f7	-0.0005293334
232	0xb9b7ef15	-0.0003508261
233	0xb9f9432c	-0.00047543028
234	0x3765fe74	1.3708708e-05
235	0x37859949	1.5926214e-05
236	0x370cde13	8.396356e-06
237	0x38021733	3.101602e-05
238	0x37d8ed2a	2.5859645e-05
239	0x381eb557	3.783902e-05
240	0xb6aa49ae	-5.0749723e-06
241	0x37d5583a	2.5432662e-05
242	0x376f7b00	1.4274148e-05
243	0x38a1bb98	7.71202e-05
244	0x399b1c8e	0.0002958518
245	0x398179b1	0.00024695465
246	0x388994ee	6.5604094e-05
247	0x37dec6e2	2.6557074e-05
248	0x37f2443b	2.888042e-05
249	0x395491ae	0.00020272165
250	0x38e01c7a	0.000106864565
251	0x3931af61	0.00016945369
252	0xb7d6f320	-2.5624002e-05
253	0xb9b49962	-0.00034446554
254	0xb9c9a829	-0.00038462997
255	0xb97d2a8e	-0.00024143813

0.global_feat.0.globalnet.1.weight f4 [64]
0	0x39889db7	0.00026057448
1	0xba2440ff	-0.00062657887
2	0xbb2425d3	-0.002504696
3	0x3b004220	0.0019570664
4	0x3ad0b73d	0.001592375
5	0x3f1834f7	0.5945582
6	0xbb3c10a3	-0.002869644
7	0xba2b1326	-0.00065259857
8	0x3afc2c37	0.0019239251
9	0x3d657d96	0.05602797
10	0x3d02e694	0.031958178
11	0x3dae2279	0.08502669
12	0x3b2f4daa	0.0026749172
13	0xba666917	-0.00087894633
14	0x3a25b754	0.00063215685
15	0xba81d729	-0.0009906042
16	0x3e087b32	0.13328245
17	0xba415dfb	-0.000737637
18	0x3dda4c8f	0.10659134
19	0x3dec1b58	0.11528653
20	0x3f1312df	0.5745067
21	0x3dfc38b9	0.123155065
22	0x3eba0b06	0.36336535
23	0x3d482e7f	0.048872467
24	0x3e6044ff	0.2190132
25	0x3f8b32e4	1.0874906
26	0x3f08fdb0	0.53512096
27	0x3eef7e3f	0.46776006
28	0x3ec2f573	0.38077888
29	0x3dab4e61	0.08364559
30	0x3e4b559e	0.19856879
31	0xba168460	-0.00057417713
32	0x3ee65adc	0.44991195
33	0x3ed3a6bf	0.41338155
34	0x3ee1d461	0.44107345
35	0x3e8a007c	0.26953495
36	0x3db984f1	0.0905856
37	0x3cbe8419	0.023256348
38	0x3e293586	0.16524324
39	0x3e89310a	0.26795226
40	0x3e52c5e0	0.20583296
41	0x3e90c326	0.28273886
42	0x3e3469f2	0.1761854
43	0x3e1c04e7	0.15236245
44	0x3e332bbf	0.17497157
45	0x3e885607	0.26628134
46	0x3eb8477e	0.35992044
47	0x3f0df867	0.55457157
48	0x3e863caa	0.26218158
49	0x3e8f7ce6	0.28024977
50	0x3f24a5d9	0.64315563
51	0x3e371f13	0.17882948
52	0x3ebc0a89	0.36726788
53	0x3e56bf0f	0.2097132
54	0x3f657f4b	0.8964736
55	0x3d83efc0	0.06442213
56	0x3da669b1	0.08125628
57	0x3e974f34	0.29552615
58	0x3ed81723	0.42205152
59	0x3f32ed7d	0.6989363
60	0x3f1817a3	0.59411067
61	0xbb05a41e	-0.002039201
62	0x3ee72d16	0.45151585
63	0x3e0ebbdd	0.13938852

0.global_feat.0.globalnet.1.bias f4 [64]
0	0xbab8e41b	-0.0014106067
1	0x3a5db2d8	0.0008457131
2	0xb9a12916	-0.00030738924
3	0x3a643df2	0.00087067403
4	0xbbbfe87e	-0.0058565727
5	0x3cf9d2f5	0.0304961
6	0xbb885aa9	-0.004161198
7	0xbbddc7e0	-0.0067682117
8	0xbb9426c5	-0.0045212233
9	0xbbca4463	-0.006172703
10	0xbc815d60	-0.015791595
11	0x3b5cb9dd	0.003368012
12	0xbcd2c567	-0.025728894
13	0x3b552183	0.0032521195
14	0xbc65d387	-0.014027483
15	0xbc5a6cc0	-0.013331592
16	0xbc536960	-0.012903541
17	0xbba6781d	-0.0050802366
18	0xbceb2fca	-0.028709311
19	0x3bc3b88e	0.0059729284
20	0xbc193a1c	-0.009352233
21	0x3ce2a1d5	0.027665058
22	0x3cd1d508	0.025614277
23	0xbc038cde	-0.008029191
24	0xba50c517	-0.0007963939
25	0x3d575d45	0.052579183
26	0x3c20d4fc	0.009816404
27	0x3cedb8da	0.029018808
28	0xbce20098	-0.027588174
29	0x3b1fd48a	0.0024388158
30	0xbc7e498e	-0.0155204665
31	0xbbdb1e69	-0.006686975
32	0x3bf08b2d	0.00734081
33	0x3c13c6b6	0.009019544
34	0xbc8c43cb	-0.01712217
35	0xbb4dc8e7	-0.0031400265
36	0xbcdbb17c	-0.02681803
37	0xbcd8edda	-0.026480604
38	0xbcdf8adc	-0.027287893
39	0xbc041e54	-0.008063871
40	0x3ba7d4a4	0.0051217843
41	0xbc7c0b65	-0.015383576
42	0xbae46f89	-0.001742826
43	0x3b141e66	0.0022601127
44	0xbc8b26fa	-0.016986359
45	0x3c3323bc	0.010933813
46	0x3c71aba6	0.014750397
47	0xbc32150d	-0.010869277
48	0x3aa1965b	0.0012328135
49	0xbca8e994	-0.020619191
50	0xbb5ab57b	-0.003337233
51	0xba934380	-0.0011235327
52	0x3c2afb3a	0.010435874
53	0xba7662b4	-0.0009398863
54	0xbcdcbb8f	-0.026944904
55	0xbc86b0c7	-0.016441716
56	0xbcd0fc20	-0.025510848
57	0xbcacae4d	-0.021079207
58	0x3d3df898	0.046379656
59	0xbb401c42	-0.0029313718
60	0x3be75315	0.0070594647
61	0xbd103dfe	-0.03521537
62	0x3d01f447	0.0317271
63	0xbc052936	-0.008127501

0.global_feat.0.globalnet.1.running_mean f4 [64]
0	0x3a122eeb	0.00055764493
1	0xba431fac	-0.0007443379
2	0x3b011292	0.0019694907
3	0xbacec9c9	-0.0015776689
4	0x3a5e9384	0.00084906095
5	0xbac77efa	-0.0015220337
6	0xba66c8a5	-0.0008803702
7	0x3a8566fd	0.0010177788
8	0x3a9d08a0	0.001198072
9	0x3c8b53ac	0.017007671
10	0xba8d8f1f	-0.00108001
11	0xba80743a	-0.0009800263
12	0x3a805607	0.0009791263
13	0x3a882e77	0.0010389824
14	0x3a8645a7	0.0010244147
15	0x3a5f8c42	0.0008527675
16	0x3c9e12d3	0.019296085
17	0xbab1b719	-0.0013558596
18	0x3ca67b25	0.020322392
19	0x3bffc453	0.007805386
20	0x3be7d756	0.0070752306
21	0x3c07c0a4	0.008285675
22	0xbc54e3fa	-0.012993807
23	0xbc39376d	-0.011304718
24	0x3c076f1f	0.008266239
25	0x3bc28a50	0.0059368983
26	0x3c0bca63	0.0085321395
27	0xbb0264ef	-0.0019896587
28	0x3c1aaeb3	0.009441066
29	0x3be0e2c2	0.006862969
30	0xbbbd2788	-0.0057725348
31	0x3b1fffa2	0.0024413844
32	0x3a636890	0.0008674944
33	0xbaea7653	-0.0017888047
34	0xbc09f20a	-0.008419523
35	0xbc725757	-0.014791331
36	0xbc30903a	-0.010776574
37	0xbbdebadc	-0.0067971777
38	0x3bbf919d	0.005846216
39	0xbba07ceb	-0.004897704
40	0xbc43d355	-0.011952241
41	0xbc47e53d	-0.012200651
42	0xbc14029a	-0.009033823
43	0xbcaae5ad	-0.020861471
44	0x3b07341b	0.0020630423
45	0xbbd84ba7	-0.0066008153
46	0xbb64e0ff	-0.0034924147
47	0xbbf41035	-0.007448221
48	0xbb1a1419	-0.0023510514
49	0xbc50bcc9	-0.012740322
50	0xbb1cd34f	-0.002392966
51	0xbc72aa0e	-0.014811052
52	0xbb58516d	-0.0033007518
53	0xbc7afa6e	-0.015318496
54	0xba0c0df4	-0.00053426553
55	0xbca23efb	-0.019805422
56	0xbc2c1ff5	-0.010505666
57	0x3c2839b3	0.010267663
58	0xbab15877	-0.0013530393
59	0xbbf623dc	-0.007511599
60	0xbbb7f9f1	-0.005614512
61	0xbab40060	-0.0013733022
62	0xbc4431ae	-0.011974735
63	0xbc46ad35	-0.012126257

0.global_feat.0.globalnet.1.running_var f4 [64]
0	0x3794a636	1.7720373e-05
1	0x371f23f2	9.485508e-06
2	0x38af1204	8.348006e-05
3	0x3883a7ed	6.2778454e-05
4	0x37c2db82	2.3228818e-05
5	0x3a450445	0.000751559
6	0x389f0e82	7.584413e-05
7	0x3804bdfe	3.1648196e-05
8	0x38280e75	4.0067785e-05
9	0x3a4f4e5a	0.00079080986
10	0x3a4b4e50	0.0007755505
11	0x3a1f622f	0.0006079999
12	0x38ce7b6f	9.845837e-05
13	0x389fea86	7.625394e-05
14	0x37f3e0f4	2.907261e-05
15	0x38f1353a	0.0001150169
16	0x3a73f2a4	0.00093058706
17	0x38a8a071	8.040749e-05
18	0x3b0cbe7b	0.002147584
19	0x3a740dcd	0.0009309918
20	0x3a898d34	0.0010494352
21	0x3b549945	0.0032439989
22	0x3a19c6b1	0.0005866094
23	0x3b1314ea	0.0022442886
24	0x3a810695	0.000984388
25	0x3a584d0d	0.00082512276
26	0x3a331b9b	0.00068324216
27	0x3b022e0f	0.001986388
28	0x3a03d9b1	0.0005029692
29	0x3b5a8f8a	0.0033349716
30	0x3aec6f06	0.0018038459
31	0x39328666	0.0001702547
32	0x3a3e73aa	0.000726516
33	0x3a82908d	0.0009961292
34	0x3b12c2e6	0.0022394
35	0x3ae92b84	0.0017789458
36	0x3ac0f362	0.0014720971
37	0x3ac38fd2	0.0014920181
38	0x3b4ba517	0.0031073743
39	0x3a9197d8	0.0011107875
40	0x3a920c9c	0.0011142674
41	0x3aa0ee75	0.0012278097
42	0x3b64ece9	0.0034931249
43	0x3ae54889	0.0017492931
44	0x3b44e9ba	0.0030046538
45	0x3aa6aee8	0.0012716921
46	0x3aa7c231	0.0012798962
47	0x3b1eb0be	0.0024214233
48	0x3a8ffab9	0.0010984755
49	0x3a162b73	0.00057285203
50	0x3a40d668	0.0007356168
51	0x3a93baee	0.0011270919
52	0x3b0465f4	0.002020237
53	0x3a84b805	0.0010125643
54	0x3a8a3345	0.0010543844
55	0x3aaf0c5f	0.0013355127
56	0x3a925f8a	0.0011167389
57	0x3b3776f2	0.002799448
58	0x3ab80ad5	0.0014041314
59	0x3ac7f6e9	0.001525608
60	0x3a5143a8	0.0007982799
61	0x38853b52	6.3529835e-05
62	0x3a51fc56	0.0008010318
63	0x3aacf1c5	0.0013194612

0.global_feat.0.positionalencoding.pe f4 [1, 500, 64]
0	0x00000000	0.0
1	0x3f800000	1.0
2	0x00000000	0.0
3	0x3f800000	1.0
4	0x00000000	0.0
5	0x3f800000	1.0
6	0x00000000	0.0
7	0x3f800000	1.0
8	0x00000000	0.0
9	0x3f800000	1.0
10	0x00000000	0.0
11	0x3f800000	1.0
12	0x00000000	0.0
13	0x3f800000	1.0
14	0x00000000	0.0
15	0x3f800000	1.0
16	0x00000000	0.0
17	0x3f800000	1.0
18	0x00000000	0.0
19	0x3f800000	1.0
20	0x00000000	0.0
21	0x3f800000	1.0
22	0x00000000	0.0
23	0x3f800000	1.0
24	0x00000000	0.0
25	0x3f800000	1.0
26	0x00000000	0.0
27	0x3f800000	1.0
28	0x00000000	0.0
29	0x3f800000	1.0
30	0x00000000	0.0
31	0x3f800000	1.0
32	0x00000000	0.0
33	0x3f800000	1.0
34	0x00000000	0.0
35	0x3f800000	1.0
36	0x00000000	0.0
37	0x3f800000	1.0
38	0x00000000	0.0
39	0x3f800000	1.0
40	0x00000000	0.0
41	0x3f800000	1.0
42	0x00000000	0.0
43	0x3f800000	1.0
44	0x00000000	0.0
45	0x3f800000	1.0
46	0x00000000	0.0
47	0x3f800000	1.0
48	0x00000000	0.0
49	0x3f800000	1.0
50	0x00000000	0.0
51	0x3f800000	1.0
52	0x00000000	0.0
53	0x3f800000	1.0
54	0x00000000	0.0
55	0x3f800000	1.0
56	0x00000000	0.0
57	0x3f800000	1.0
58	0x00000000	0.0
59	0x3f800000	1.0
60	0x00000000	0.0
61	0x3f800000	1.0
62	0x00000000	0.0
63	0x3f800000	1.0
64	0x3f576aa4	0.84147096
65	0x3f0a5141	0.54030234
66	0x3f2e7ace	0.68156135
67	0x3f3b54b0	0.731761
68	0x3f087dba	0.53316844
69	0x3f58940d	0.8460091
70	0x3ed190f0	0.4093089
71	0x3f6992c7	0.9123959
72	0x3e9f393e	0.3109836
73	0x3f734e6b	0.9504153
74	0x3e708f25	0.23492105
75	0x3f78d5f1	0.9720145
76	0x3e35233a	0.17689219
77	0x3f7bf683	0.9842302
78	0x3e0825f3	0.13295726
79	0x3f7dba28	0.99112177
80	0x3dcc7576	0.099833414
81	0x3f7eb898	0.9950042
82	0x3d996f36	0.07491915
83	0x3f7f47d1	0.9971896
84	0x3d6636ae	0.05620449
85	0x3f7f9868	0.9984193
86	0x3d2cacfb	0.042157155
87	0x3f7fc5bd	0.999111
88	0x3d01815b	0.031617504
89	0x3f7fdf3c	0.99950004
90	0x3cc23ea5	0.023711512
91	0x3f7fed93	0.99971884
92	0x3c91ab42	0.017781857
93	0x3f7ff5a3	0.99984187
94	0x3c5a7a49	0.013334819
95	0x3f7ffa2c	0.99991107
96	0x3c23d657	0.009999833
97	0x3f7ffcb9	0.99995
98	0x3bf5b916	0.0074988706
99	0x3f7ffe28	0.99997187
100	0x3bb8445a	0.0056233825
101	0x3f7ffef7	0.9999842
102	0x3b8a2e5a	0.0042169513
103	0x3f7fff6b	0.9999911
104	0x3b4f3e1c	0.0031622713
105	0x3f7fffac	0.999995
106	0x3b1b6903	0.0023713715
107	0x3f7fffd1	0.9999972
108	0x3ae91520	0.0017782785
109	0x3f7fffe6	0.99999845
110	0x3aaec98b	0.0013335211
111	0x3f7ffff1	0.9999991
112	0x3a83126d	0.0009999998
113	0x3f7ffff8	0.9999995
114	0x3a449489	0.000749894
115	0x3f7ffffb	0.9999997
116	0x3a136a13	0.0005623411
117	0x3f7ffffd	0.9999998
118	0x39dd1721	0.00042169637
119	0x3f7fffff	0.99999994
120	0x39a5cb61	0.00031622782
121	0x3f7fffff	0.99999994
122	0x3978a80d	0.00023713727
123	0x3f800000	1.0
124	0x393a7753	0.00017782794
125	0x3f800000	1.0
126	0x390bd46d	0.00013335208
127	0x3f800000	1.0
128	0x3f68c7b7	0.9092974
129	0xbed51133	-0.41614684
130	0x3f7f5ad9	0.99748
131	0x3d914d53	0.070948265
132	0x3f66f20a	0.9021307
133	0x3edce8b2	0.43146282
134	0x3f3f3511	0.7469035
135	0x3f2a3903	0.6649324
136	0x3f17541b	0.5911271
137	0x3f4e7bec	0.8065784
138	0x3ee9d3b5	0.45669332
139	0x3f63be69	0.8896242
140	0x3eb247f6	0.34820527
141	0x3f6ffaa6	0.93741834
142	0x3e86f082	0.26355368
143	0x3f76f2f5	0.96464473
144	0x3e4b6ff8	0.19866931
145	0x3f7ae5a5	0.9800666
146	0x3e1900d3	0.1494172
147	0x3f7d204f	0.98877424
148	0x3de5d986	0.1122313
149	0x3f7e61f3	0.9936821
150	0x3dac85af	0.084239356
151	0x3f7f170e	0.99644554
152	0x3d8170c8	0.063203394
153	0x3f7f7cf9	0.9980007
154	0x3d4230aa	0.04740969
155	0x3f7fb64e	0.9988755
156	0x3d11a55c	0.03555809
157	0x3f7fd68e	0.9993676
158	0x3cda7550	0.026667267
159	0x3f7fe8b1	0.99964434
160	0x3ca3d43e	0.019998666
161	0x3f7ff2e5	0.9998
162	0x3c75b751	0.014997319
163	0x3f7ff8a1	0.9998875
164	0x3c38439b	0.011246587
165	0x3f7ffbdb	0.99993676
166	0x3c0a2e0a	0.008433828
167	0x3f7ffdab	0.9999644
168	0x3bcf3dd8	0.006324511
169	0x3f7ffeb1	0.99998003
170	0x3b9b68e7	0.00474273
171	0x3f7fff43	0.99998873
172	0x3b691508	0.0035565514
173	0x3f7fff96	0.9999937
174	0x3b2ec980	0.0026670396
175	0x3f7fffc4	0.9999964
176	0x3b031268	0.0019999985
177	0x3f7fffdf	0.99999803
178	0x3ac49485	0.0014997876
179	0x3f7fffed	0.99999887
180	0x3a936a12	0.0011246821
181	0x3f7ffff5	0.99999934
182	0x3a5d171f	0.0008433926
183	0x3f7ffffa	0.99999964
184	0x3a25cb60	0.0006324556
185	0x3f7ffffd	0.9999998
186	0x39f8a80c	0.0004742745
187	0x3f7ffffe	0.9999999
188	0x39ba7753	0.00035565588
189	0x3f7fffff	0.99999994
190	0x398bd46d	0.00026670416
191	0x3f800000	1.0
192	0x3e1081c3	0.14112
193	0xbf7d7026	-0.9899925
194	0x3f473cde	0.7782725
195	0xbf20bfce	-0.6279267
196	0x3f7e45d7	0.9932532
197	0xbded7fab	-0.11596616
198	0x3f742163	0.95363444
199	0x3e9a1863	0.3009673
200	0x3f5009c2	0.8126489
201	0x3f152f58	0.58275366
202	0x3f2724b7	0.652904
203	0x3f41e7a2	0.7574407
204	0x3f022f6c	0.5085361
205	0x3f5c6d29	0.86104065
206	0x3ec768a7	0.3894703
207	0x3f6bc937	0.92103904
208	0x3e974e6c	0.2955202
209	0x3f7490ef	0.9553365
210	0x3e646de2	0.22307542
211	0x3f798c92	0.9748012
212	0x3e2beed7	0.16790329
213	0x3f7c5d9e	0.9858035
214	0x3e01332c	0.12617177
215	0x3f7df443	0.9920084
216	0x3dc1ffc0	0.094726086
217	0x3f7ed94f	0.99550337
218	0x3d919306	0.071081206
219	0x3f7f5a3a	0.9974705
220	0x3d5a694e	0.053323083
221	0x3f7fa2c3	0.9985773
222	0x3d23d1c5	0.039994974
223	0x3f7fcb90	0.99919987
224	0x3cf5b91f	0.0299955
225	0x3f7fe283	0.99955004
226	0x3cb84747	0.022494925
227	0x3f7fef6b	0.999747
228	0x3c8a31c6	0.016869437
229	0x3f7ff6ad	0.9998577
230	0x3c4f4446	0.012650555
231	0x3f7ffac1	0.99991995
232	0x3c1b6e0d	0.009486687
233	0x3f7ffd0d	0.999955
234	0x3be91d13	0.0071140616
235	0x3f7ffe58	0.9999747
236	0x3baecfa8	0.005334813
237	0x3f7fff11	0.99998575
238	0x3b831713	0.0040005534
239	0x3f7fff7a	0.999992
240	0x3b449b92	0.0029999954
241	0x3f7fffb5	0.9999955
242	0x3b136f60	0.0022496805
243	0x3f7fffd6	0.9999975
244	0x3add1f17	0.0016870227
245	0x3f7fffe8	0.99999857
246	0x3aa5d156	0.0012650888
247	0x3f7ffff3	0.9999992
248	0x3a78b110	0.00094868336
249	0x3f7ffff9	0.9999996
250	0x3a3a7e09	0.00071141176
251	0x3f7ffffc	0.99999976
252	0x3a0bd97e	0.0005334838
253	0x3f7ffffe	0.9999999
254	0x39d1bea4	0.00040005625
255	0x3f7fffff	0.99999994

0.global_feat.1.0.0.fn.0.keys.weight f4 [64, 64]
0	0xb66dd388	-3.543888e-06
1	0x35fc85bd	1.8814386e-06
2	0x3118919e	2.2201685e-09
3	0xb6edf104	-7.0912083e-06
4	0xb724721c	-9.80173e-06
5	0x3787b1de	1.617608e-05
6	0x36332cca	2.669915e-06
7	0xb75cbd30	-1.31570705e-05
8	0xb670562e	-3.581295e-06
9	0xb6bb2d81	-5.5783316e-06
10	0xb6a8748e	-5.020359e-06
11	0xb6cb9c39	-6.068058e-06
12	0x3658bdb7	3.2296937e-06
13	0x36bad60e	5.568151e-06
14	0xb714ae26	-8.8620345e-06
15	0x361e368c	2.3575585e-06
16	0xb6e42fab	-6.800479e-06
17	0xb6918f46	-4.338016e-06
18	0x3716a594	8.979248e-06
19	0x36c233b3	5.787669e-06
20	0x36b91d15	5.5168152e-06
21	0xb5c2bb9c	-1.4508728e-06
22	0x3757048b	1.2816056e-05
23	0x35c24a2f	1.4475717e-06
24	0x36b1b253	5.2957707e-06
25	0x3712085c	8.7042245e-06
26	0xb73afd1b	-1.1145395e-05
27	0x3702412d	7.763779e-06
28	0xb6f7291f	-7.3659608e-06
29	0xb6895cdf	-4.09373e-06
30	0x37308c11	1.0523029e-05
31	0xb5b1e64c	-1.3254553e-06
32	0x371c8fac	9.331776e-06
33	0xb6812f21	-3.849986e-06
34	0x367e04fe	3.7851855e-06
35	0xb56350d6	-8.468172e-07
36	0x36f9275a	7.4253594e-06
37	0x361c13bf	2.3257305e-06
38	0x3618a380	2.2744935e-06
39	0x3655fa51	3.1885177e-06
40	0xb65443ad	-3.1629854e-06
41	0x374f0e73	1.2341526e-05
42	0x36bfeb7b	5.719657e-06
43	0x36a1a469	4.8173138e-06
44	0x3678a4c6	3.705079e-06
45	0x36b5d606	5.419136e-06
46	0x363598d0	2.706005e-06
47	0x362f3599	2.610823e-06
48	0xb699cd3d	-4.583648e-06
49	0xb5973cf5	-1.1268118e-06
50	0x37230a64	9.717976e-06
51	0x36e3c59a	6.788131e-06
52	0xb70c7fe0	-8.3744235e-06
53	0x370c0d2d	8.347718e-06
54	0x372a56df	1.0153016e-05
55	0x3526bdbf	6.2115936e-07
56	0xb3078732	-3.1555096e-08
57	0x35c7bc48	1.4881452e-06
58	0xb5f3139b	-1.8110617e-06
59	0x36a6454f	4.955254e-06
60	0x371f0df5	9.480388e-06
61	0xb6ac0936	-5.1270717e-06
62	0x3686a2e6	4.012475e-06
63	0x371e5ff7	9.439877e-06
64	0x360d8694	2.1088972e-06
65	0xb5c0007c	-1.4305256e-06
66	0x35e898e5	1.7329845e-06
67	0x359edb48	1.1835737e-06
68	0xb628f19f	-2.5174593e-06
69	0x35b40e96	1.341529e-06
70	0x35a22c5c	1.2082851e-06
71	0xb64c5183	-3.0445815e-06
72	0xb60027eb	-1.9096722e-06
73	0xb625d1d9	-2.4709063e-06
74	0xb6555841	-3.1790844e-06
75	0x34bb6044	3.4901507e-07
76	0x363d6443	2.8221555e-06
77	0xb3ec087a	-1.0991148e-07
78	0xb5ac5b7a	-1.2841622e-06
79	0x354c3c40	7.60836e-07
80	0xb5b4058a	-1.3412657e-06
81	0x34c17c24	3.6039376e-07
82	0x3604f476	1.9811828e-06
83	0x366163c5	3.3585686e-06
84	0xb619c429	-2.2912957e-06
85	0x364f40b9	3.0883077e-06
86	0x3302468a	3.033214e-08
87	0xb6399f59	-2.76599e-06
88	0x35010c3c	4.807405e-07
89	0xb5c21a7a	-1.4461832e-06
90	0xb40f5667	-1.3349346e-07
91	0xb68c075f	-4.1731832e-06
92	0x323db121	1.1041522e-08
93	0xb644d3d3	-2.9329574e-06
94	0x369ad9ba	4.6149044e-06
95	0xb53bacf2	-6.9914597e-07
96	0x35d66511	1.5973657e-06
97	0xb6856000	-3.9748847e-06
98	0x3495096c	2.7760268e-07
99	0x340004eb	1.1922718e-07
100	0x35b0a986	1.316236e-06
101	0xb54990d8	-7.508911e-07
102	0x3581fcb9	9.684801e-07
103	0xb485c510	-2.4916562e-07
104	0xb4043f40	-1.2316468e-07
105	0xb6cd2c96	-6.1146666e-06
106	0x3612b5f3	2.1861604e-06
107	0xb592d1f4	-1.0938952e-06
108	0x35d43332	1.5810131e-06
109	0xb59277d0	-1.0912718e-06
110	0xb91c594e	-0.00014910588
111	0xb57fe01d	-9.532103e-07
112	0xb5b73f91	-1.3653063e-06
113	0xb54aa736	-7.549419e-07
114	0xb51a0e6c	-5.739046e-07
115	0x36147739	2.2123115e-06
116	0x35a42308	1.2229148e-06
117	0x351696fc	5.6099066e-07
118	0xb5a7418c	-1.2461546e-06
119	0xb68e4b0e	-4.2406673e-06
120	0x3716afb3	8.981605e-06
121	0x341ad6a7	1.4420458e-07
122	0xb409b13f	-1.2823601e-07
123	0x35d9f2a5	1.6238379e-06
124	0xb46f3749	-2.2278722e-07
125	0x3185e94f	3.8973336e-09
126	0x333f2649	4.4505473e-08
127	0xb49fe8f7	-2.9785562e-07
128	0x333f1655	4.4490964e-08
129	0x32112d41	8.4504e-09
130	0x31031972	1.9077473e-09
131	0xb39d81ba	-7.334479e-08
132	0x33844b97	6.160479e-08
133	0xb39388e0	-6.870118e-08
134	0x3219fd40	8.9633545e-09
135	0xb337e62e	-4.2817355e-08
136	0xb397a816	-7.06206e-08
137	0xb2f71025	-2.8761926e-08
138	0xb363a3c9	-5.3001518e-08
139	0x33485f48	4.6652787e-08
140	0xb30b833a	-3.248281e-08
141	0xb30a45b0	-3.219401e-08
142	0x33e5bea0	1.0698318e-07
143	0xb2d3d073	-2.4658425e-08
144	0x33e16c3a	1.0497065e-07
145	0xb391b684	-6.785288e-08
146	0xb330c4bc	-4.1157122e-08
147	0x31e9b608	6.801887e-09
148	0xb3eadcd8	-1.09366454e-07
149	0x3359a0b3	5.0670405e-08
150	0xb3e2978d	-1.0551512e-07
151	0xb3870fc8	-6.289298e-08
152	0x33231619	3.7971493e-08
153	0x35890de5	1.0211339e-06
154	0x33b3f676	8.380168e-08
155	0xb36dcb85	-5.5365962e-08
156	0x33713681	5.6161756e-08
157	0x339ac72b	7.207412e-08
158	0xb2436f9c	-1.1375871e-08
159	0xb187d193	-3.952843e-09
160	0x34449a3b	1.8310031e-07
161	0x32aee930	2.0362307e-08
162	0xb2f04062	-2.7968955e-08
163	0x32b1aa85	2.0683055e-08
164	0xb3a17b20	-7.519543e-08
165	0x31ed323e	6.9033197e-09
166	0xb3badab8	-8.701085e-08
167	0xb2ade977	-2.0246018e-08
168	0x33bddbb1	8.84096e-08
169	0x31a1f695	4.71375e-09
170	0xb2a17817	-1.8797477e-08
171	0xb397778d	-7.0532316e-08
172	0xb26e854b	-1.3883731e-08
173	0xb3cd0083	-9.5461495e-08
174	0xb3255a3f	-3.8499135e-08
175	0xb3442fc8	-4.5678263e-08
176	0x334348d9	4.546823e-08
177	0xb2ce4f29	-2.4017554e-08
178	0xb284c61f	-1.5456918e-08
179	0xb3d2e543	-9.8205895e-08
180	0x33669a8f	5.369162e-08
181	0xb3d22a3f	-9.7865716e-08
182	0xb3afa2ab	-8.178662e-08
183	0xb31c8a39	-3.6447293e-08
184	0xb29fbc90	-1.8595784e-08
185	0xb3309206	-4.1111e-08
186	0xb20ffff7	-8.381895e-09
187	0xb297c13e	-1.766659e-08
188	0xaf33776c	-1.6322382e-10
189	0x36f34aa2	7.2506527e-06
190	0xb231f832	-1.0359189e-08
191	0xb37271c1	-5.6448474e-08
192	0xb778ff0c	-1.4841335e-05
193	0x373fa459	1.1422752e-05
194	0xb5bdde20	-1.4146244e-06
195	0xb7b85018	-2.1971806e-05
196	0xb7eed942	-2.847298e-05
197	0x384b0fda	4.8413734e-05
198	0x36f9e921	7.447918e-06
199	0xb81644e9	-3.5826964e-05
200	0xb727b85f	-9.996903e-06
201	0xb786d915	-1.6075131e-05
202	0xb79393a0	-1.7592509e-05
203	0xb75658e5	-1.2776091e-05
204	0x3796ecbb	1.799163e-05
205	0x37823bbd	1.5525025e-05
206	0xb72e4879	-1.0388082e-05
207	0x37102df7	8.593771e-06
208	0xb7ba0446	-2.2174918e-05
209	0xb60e4d6a	-2.120471e-06
210	0x37d16c15	2.4965071e-05
211	0x37f29650	2.8918643e-05
212	0x37634d17	1.3548203e-05
213	0x3710f103	8.639184e-06
214	0x380c5cd8	3.346507e-05
215	0xb6a3fe01	-4.8873485e-06
216	0x37a07e74	1.913237e-05
217	0x3803163d	3.1253545e-05
218	0xb805d3af	-3.1906817e-05
219	0x3708a31f	8.144211e-06
220	0xb76a9bd9	-1.3983773e-05
221	0xb77e0322	-1.5140309e-05
222	0x382d5f04	4.1334904e-05
223	0xb6295787	-2.523391e-06
224	0x3807e715	3.240172e-05
225	0xb6edc649	-7.086234e-06
226	0x3727cd1a	1.000173e-05
227	0x363206eb	2.6528094e-06
228	0x37aae398	2.037156e-05
229	0x37a4d992	1.9651638e-05
230	0x371fd814	9.527448e-06
231	0x3712e57d	8.75571e-06
232	0xb6b4925a	-5.3814556e-06
233	0xb6f41afd	-7.2749085e-06
234	0x372761df	9.976763e-06
235	0x37944d59	1.7678993e-05
236	0xb5ec8f8f	-1.7625151e-06
237	0x3745695a	1.1766644e-05
238	0x391780b9	0.00014448435
239	0x36e201bf	6.735528e-06
240	0xb789fa51	-1.6448235e-05
241	0xb7074439	-8.062511e-06
242	0x37f265eb	2.8896107e-05
243	0x37b31547	2.134837e-05
244	0xb79d0195	-1.8716595e-05
245	0x37cbca9c	2.4293833e-05
246	0x38209088	3.8281578e-05
247	0xb61b29f6	-2.3121224e-06
248	0xb6be6681	-5.6743743e-06
249	0x370de32c	8.4571475e-06
250	0x3663e0cc	3.3956485e-06
251	0x37546a59	1.2660946e-05
252	0x37e91250	2.7784292e-05
253	0xb5eeed72	-1.7801488e-06
254	0x3703d8aa	7.8586545e-06
255	0xb80a95bc	-3.3041215e-05

0.global_feat.1.0.0.fn.0.keys.bias f4 [64]
0	0x32de9d05	2.5915606e-08
1	0x308f47de	1.0425045e-09
2	0x37de6c61	2.651493e-05
3	0x3176d89c	3.592084e-09
4	0xb1f05265	-6.9942865e-09
5	0xb1807ad1	-3.739253e-09
6	0xb4e59133	-4.276022e-07
7	0xb1ebdbbf	-6.8643824e-09
8	0x31baf273	5.4408757e-09
9	0xb034f72e	-6.583488e-10
10	0xb17f42fe	-3.7145464e-09
11	0xb03c65a3	-6.8538436e-10
12	0x3a025389	0.0004971554
13	0x2e0b4e2c	3.167437e-11
14	0x2e9f3120	7.239209e-11
15	0xb6b647af	-5.4323677e-06
16	0xb02176cb	-5.8740274e-10
17	0x3215fe1f	8.730722e-09
18	0x2f4c8672	1.8601456e-10
19	0xaf85d950	-2.434697e-10
20	0x309a5c68	1.1231238e-09
21	0x37bd267f	2.2548482e-05
22	0xb7f23fcd	-2.8878358e-05
23	0xb71df3c9	-9.41469e-06
24	0x2fa7b986	3.0508945e-10
25	0xb024abf7	-5.990723e-10
26	0xb90346de	-0.00012519534
27	0xb243c790	-1.1395869e-08
28	0xb11136c4	-2.1131408e-09
29	0x309f3d7c	1.1586248e-09
30	0xb0a6d2cf	-1.2138005e-09
31	0x3075e224	8.9451846e-10
32	0x348ea750	2.6571297e-07
33	0x362dea8f	2.591554e-06
34	0xaf988e90	-2.7749936e-10
35	0xb17e55d3	-3.701065e-09
36	0xb67b90e6	-3.7486257e-06
37	0xb7b7f1b5	-2.1927854e-05
38	0xb0cc2ee0	-1.4856276e-09
39	0x31655acf	3.3375505e-09
40	0xb1a137f6	-4.6920787e-09
41	0x385f83ee	5.3290212e-05
42	0xb105f1cc	-1.9491493e-09
43	0x38ed3610	0.000113111106
44	0xb2a1347e	-1.8766737e-08
45	0x3107fb49	1.9787925e-09
46	0x3266f506	1.3443474e-08
47	0x2fa90136	3.074178e-10
48	0x3a0dfe92	0.0005416657
49	0xafa22648	-2.949483e-10
50	0x3088ae07	9.944764e-10
51	0x30933d4f	1.0713083e-09
52	0x34489ddb	1.8683879e-07
53	0xb26dafdd	-1.3835202e-08
54	0x30900d51	1.0481164e-09
55	0xb0518f11	-7.6237067e-10
56	0x37f97d65	2.9741504e-05
57	0x2ee1af0f	1.0262912e-10
58	0xb19132e3	-4.2258406e-09
59	0x300530a1	4.8454224e-10
60	0xaf8d4986	-2.5699992e-10
61	0xb22e35e9	-1.0140391e-08
62	0xaf799e0c	-2.2702568e-10
63	0x366b57e3	3.5068886e-06
