tmp.pth (torch, 715694 bytes, 56 tensors)

pre_features f4 [64, 200]
0	0xbe7517e8	-0.23934901
1	0x3e9ea3e2	0.30984408
2	0xbd03ba5d	-0.03216015
3	0xbe2a4739	-0.16628732
4	0xbdbb9e67	-0.09161072
5	0x3e56cf06	0.2097741
6	0xbe938ada	-0.28816873
7	0xbe95b6ff	-0.29241177
8	0x3da47d32	0.080316916
9	0x3e23a253	0.1597989
10	0xbd74f4fa	-0.05980394
11	0x3c9bb110	0.019005328
12	0x3e021ec8	0.12707055
13	0x3c743325	0.014904772
14	0xbdf089b3	-0.11745014
15	0x3e07301c	0.13201946
16	0xbe57d249	-0.21076311
17	0xbef8bbb2	-0.485807
18	0xbdedcf89	-0.1161185
19	0x3d28a587	0.041173484
20	0xbd0ff82c	-0.035148785
21	0x3e1e26a0	0.15444422
22	0x3d05ec88	0.032696277
23	0x3e012f42	0.12615684
24	0xbda81595	-0.082072414
25	0xbf114674	-0.5674813
26	0xbdc32f3c	-0.095304936
27	0x3e06ae84	0.1315251
28	0xbe8c41a8	-0.27393842
29	0xbe0f0a77	-0.13968836
30	0xbdaa8ae4	-0.083272725
31	0x3e54ce5a	0.20781842
32	0x3d253762	0.04033602
33	0x3d4e0481	0.050297264
34	0xbf073f09	-0.5283056
35	0x3e601856	0.21884283
36	0x3e836014	0.2565924
37	0xbe885eec	-0.2663492
38	0x3f3abdd6	0.72945917
39	0x3d849c9e	0.06475185
40	0xbbb7f6f0	-0.005614154
41	0x3e0dc2ec	0.13843888
42	0x3dde5413	0.1085588
43	0xbd17969a	-0.03700886
44	0xbda71e44	-0.081600696
45	0xbe98b992	-0.2982908
46	0xbf14bdb1	-0.58101946
47	0x3e53a7b2	0.2066944
48	0x3da02f3f	0.078215115
49	0xbe6205c2	-0.22072509
50	0x3e248bb7	0.16068922
51	0xbc50da50	-0.012747362
52	0x3dd509ef	0.10402285
53	0x3e89becb	0.26903376
54	0xbe5f3f3a	-0.21801463
55	0x3d1918b7	0.037377086
56	0x3c1044b8	0.008805446
57	0xbeb3709d	-0.35046855
58	0x3c13dc24	0.009024654
59	0x3ebdd06b	0.37073073
60	0x3e96cf2c	0.29454935
61	0x3c5378c2	0.012907209
62	0x3c2e7d30	0.010649964
63	0xbe0f82a8	-0.14014685
64	0x3e856db0	0.26060247
65	0xbdab9865	-0.08378676
66	0x3e2b13d6	0.16706786
67	0xbe1f6640	-0.15566349
68	0x3e942dcb	0.28941187
69	0xbe95a319	-0.29225996
70	0xbbd35be4	-0.006450163
71	0x3dbf480d	0.093399145
72	0xbe2ff989	-0.17185034
73	0xbdae063b	-0.08497282
74	0xbe01c17e	-0.12671468
75	0x3edf4cf5	0.436134
76	0xbe913fc2	-0.28368956
77	0x3df2849a	0.11841698
78	0x3e04af9c	0.12957615
79	0xbd663e71	-0.056211893
80	0x3ea4ed04	0.3221208
81	0x3d3946ea	0.045233645
82	0xbc2327bf	-0.009958207
83	0xbc225119	-0.0099070305
84	0x3e4feb9a	0.20304719
85	0xbe573f81	-0.21020319
86	0xbe8e936e	-0.27846855
87	0xbdbed7bc	-0.09318492
88	0xbf005be6	-0.50140226
89	0x3ea95c06	0.3307802
90	0xbe194629	-0.1496817
91	0xbe76de73	-0.24108295
92	0xbef0b519	-0.47013167
93	0x3e5a3745	0.21310146
94	0x3df827df	0.1211698
95	0x3d336219	0.043794725
96	0xbe354bef	-0.17704748
97	0x3ed2f533	0.41202697
98	0xbd659252	-0.056047745
99	0xbea014ea	-0.31265956
100	0x3de0356d	0.1094769
101	0x3e85c6e8	0.26128316
102	0x3dbec3a6	0.09314661
103	0xbe993958	-0.29926562
104	0xbcfd6c8e	-0.030935552
105	0x3dc69257	0.09695881
106	0xbe512b3c	-0.20426649
107	0x3ce363c4	0.027757533
108	0x3b383a40	0.0028110892
109	0x3d705436	0.05867406
110	0x3ccf822c	0.025330625
111	0x3e5fdc6a	0.21861425
112	0xbea6a72c	-0.32549417
113	0xbb252dc0	-0.002520427
114	0xbc509388	-0.012730487
115	0x3e3f0fbe	0.18658349
116	0xbe827ba7	-0.25484964
117	0xbe2e3760	-0.17013311
118	0xbe697024	-0.22796685
119	0xbe7713df	-0.24128674
120	0xbd4b9b5e	-0.049708717
121	0xbe033f90	-0.12817216
122	0xbe2e5c93	-0.17027502
123	0xbeb5bb56	-0.35494488
124	0xbec5adc2	-0.3860913
125	0xbe2ec3f8	-0.17066944
126	0x3d87bd20	0.066278696
127	0x3e004d1b	0.12529413
128	0x3ef38dd5	0.47569147
129	0xbe99774c	-0.2997383
130	0xbda5bf5c	-0.080931395
131	0xbc731a38	-0.014837794
132	0xbdced16c	-0.10098538
133	0xbe8899dd	-0.26679888
134	0xbc125d32	-0.008933352
135	0xbde46b55	-0.111532845
136	0xbd07c85d	-0.033150066
137	0xbe5bc782	-0.21462825
138	0x3dca8eb6	0.09890501
139	0x3e2d02d9	0.16895618
140	0xbdc7bebf	-0.09753179
141	0x3e6639b0	0.22482944
142	0xbf01e015	-0.5073255
143	0xbf19f0a8	-0.6013284
144	0xbe5c3a76	-0.21506676
145	0x3d3b58cd	0.045738984
146	0x3d1e2b32	0.038615413
147	0xbe364677	-0.17800318
148	0xbe9205d7	-0.2852008
149	0xbe0626c0	-0.1310072
150	0xbd3becfb	-0.0458803
151	0x3e9a11c5	0.30091682
152	0xbdc2ad90	-0.09505761
153	0xbe741b5c	-0.23838562
154	0x3e2c6b56	0.1683782
155	0xbdd2495d	-0.10267899
156	0x3ca2a5a6	0.019854378
157	0x3e6fcb57	0.23417412
158	0xbea24b4b	-0.3169807
159	0x3ea3874a	0.31939155
160	0x3e6a9d18	0.22911489
161	0x3d3bb5e1	0.04582775
162	0xbe86378a	-0.26214248
163	0xbd9eb0e6	-0.077485844
164	0xbd8fc531	-0.07020033
165	0xbd927af8	-0.07152361
166	0x3e16f4d3	0.1474183
167	0xbde2f1d2	-0.1108128
168	0x3f152f2c	0.58275104
169	0xbebcde5f	-0.36888406
170	0xbe7bd883	-0.24594311
171	0x3eeb8d31	0.46006158
172	0xbe9a285a	-0.3010891
173	0x3e98bc51	0.29831174
174	0x3ec3b2d2	0.38222367
175	0x3e1885f3	0.14894848
176	0xbd2a5686	-0.04158642
177	0xbee6a157	-0.45044968
178	0xbe40bcdc	-0.18822044
179	0xbf0ee3cc	-0.5581634
180	0xbe1ce0a9	-0.15320076
181	0x3e00c6c6	0.12575826
182	0xbdc6d5d7	-0.097087555
183	0x3e33b70b	0.17550294
184	0xbdd458fc	-0.10368535
185	0xbee628c0	-0.44952965
186	0xbeee2368	-0.46511388
187	0xbe2a80c7	-0.16650687
188	0x3e7decb9	0.24797334
189	0xbed830aa	-0.42224628
190	0xbea50e06	-0.32237262
191	0xbcd49ed6	-0.025954645
192	0x3df4a61b	0.119457446
193	0xbd46bb6d	-0.048518587
194	0xbe618845	-0.22024639
195	0x3e34f6c6	0.17672262
196	0xbcbe9668	-0.023265079
197	0x3dc9fa88	0.09862238
198	0xbf02fb44	-0.5116465
199	0x3e2c18c4	0.16806322
200	0xbd73df47	-0.059539106
201	0x3e1af7fe	0.15133664
202	0x3e23a8eb	0.15982406
203	0xbdf0de14	-0.11761108
204	0x3c9d66fe	0.01921415
205	0xbd9cf4d3	-0.07663884
206	0xbd31d198	-0.043412775
207	0xbf067960	-0.52528954
208	0xbf2d1f99	-0.6762634
209	0x3e8f1315	0.27944246
210	0x3e3f2245	0.18665417
211	0xbed1b0f4	-0.40955317
212	0xbe29a73a	-0.16567698
213	0x3e29c495	0.16578896
214	0xbdcba3b6	-0.09943335
215	0x3d2f30fe	0.042771332
216	0x3e221c00	0.15830994
217	0x3e9df24e	0.30848926
218	0xbd5a3179	-0.053269837
219	0x3e90d2ce	0.2828583
220	0xbb4506a0	-0.0030063763
221	0xbe3b5ff2	-0.18298319
222	0x3b2f7bae	0.00267766
223	0xbe83ac08	-0.25717187
224	0x3e951b00	0.29122162
225	0x3e424305	0.18970878
226	0x3ea6443a	0.32473928
227	0xbd4679b4	-0.04845591
228	0x3e18efc1	0.14935209
229	0xbd97831b	-0.07398053
230	0x3e195c8f	0.14976715
231	0x3e6dbced	0.232166
232	0x3e8e7dd9	0.2783039
233	0xbcb40074	-0.021972872
234	0xbe7ba281	-0.24573709
235	0xbeb198e0	-0.34686947
236	0x3e35b54a	0.17744938
237	0xbdce7851	-0.10081542
238	0x3d1dd110	0.038529456
239	0x3ec8ebf0	0.39242506
240	0xbea8a5c5	-0.32938972
241	0x3d42b695	0.047537405
242	0xbed6121a	-0.41810685
243	0x3e28f1a7	0.16498433
244	0xbdaf319d	-0.08554385
245	0x3ea10ede	0.31456655
246	0x3db7954e	0.089640245
247	0xbe4872e3	-0.19575076
248	0x3ed6ce28	0.4195416
249	0xbe76748e	-0.240679
250	0xbd160051	-0.036621395
251	0xbe774c3a	-0.24150172
252	0x3c86322c	0.016381346
253	0xbb609dd8	-0.003427377
254	0x3ca7bce8	0.02047582
255	0xbd098982	-0.033578403

pre_weight1 f4 [64, 1]
0	0x3f7ff872	0.9998847
1	0x3f7ffaed	0.9999226
2	0x3f7fefda	0.9997536
3	0x3f7ff04d	0.99976045
4	0x3f7ff4db	0.99982995
5	0x3f7fff72	0.99999154
6	0x3f7ff04a	0.99976027
7	0x3f7ff3ee	0.9998158
8	0x3f800376	1.0001056
9	0x3f7ffa24	0.9999106
10	0x3f8006e4	1.0002103
11	0x3f7fed39	0.9997135
12	0x3f7ff818	0.99987936
13	0x3f80024e	1.0000703
14	0x3f7ff683	0.9998552
15	0x3f8003c7	1.0001153
16	0x3f800692	1.0002005
17	0x3f7ff854	0.99988294
18	0x3f7feee4	0.99973893
19	0x3f7ffa50	0.9999132
20	0x3f7fefe7	0.99975437
21	0x3f7ffb7d	0.99993116
22	0x3f7ffcb6	0.9999498
23	0x3f8001d6	1.000056
24	0x3f7ff95f	0.99989885
25	0x3f7ff91c	0.99989486
26	0x3f7fff23	0.9999868
27	0x3f7fd900	0.9994049
28	0x3f7feeb2	0.99973595
29	0x3f7feff2	0.999755
30	0x3f7ffd4e	0.9999589
31	0x3f7ff273	0.99979323
32	0x3f7ff795	0.99987155
33	0x3f7fec3d	0.99969846
34	0x3f800404	1.0001225
35	0x3f800015	1.0000025
36	0x3f7fe863	0.9996397
37	0x3f7fee2c	0.99972796
38	0x3f7ff02b	0.9997584
39	0x3f7ff4a7	0.99982685
40	0x3f7ff621	0.9998494
41	0x3f7ff804	0.99987817
42	0x3f8001ef	1.000059
43	0x3f7ff296	0.9997953
44	0x3f8000cb	1.0000242
45	0x3f7febe4	0.99969316
46	0x3f80004d	1.0000092
47	0x3f7ffdc7	0.9999661
48	0x3f7fe0fe	0.99952686
49	0x3f7ffffb	0.9999997
50	0x3f7ffa09	0.999909
51	0x3f7fe035	0.9995149
52	0x3f7ff44e	0.99982154
53	0x3f7ffd4c	0.99995875
54	0x3f7ff04c	0.9997604
55	0x3f8000ae	1.0000207
56	0x3f7fee86	0.9997333
57	0x3f7fe970	0.9996557
58	0x3f7ff70d	0.99986345
59	0x3f800363	1.0001034
60	0x3f7ffda1	0.9999638
61	0x3f7fecd0	0.9997072
62	0x3f7fea48	0.9996686
63	0x3f800118	1.0000334

0.global_feat.0.ConvLSTM.cell_list.0.conv.weight f4 [128, 33, 1, 3]
0	0x3c0bc2b2	0.008530306
1	0xbe792eea	-0.24334303
2	0x3d03bc18	0.032161802
3	0xb39c681a	-7.283252e-08
4	0x339c784f	7.2862e-08
5	0x339c529f	7.279345e-08
6	0x33647376	5.3190398e-08
7	0xb39c81ba	-7.287913e-08
8	0xb0f40dc5	-1.775725e-09
9	0x33847941	6.168785e-08
10	0x339c7dfa	7.287231e-08
11	0xb1254bcd	-2.4053748e-09
12	0x33917994	6.7742036e-08
13	0x31271e71	2.4319002e-09
14	0xb40ecf4c	-1.3300195e-07
15	0x31700843	3.4929293e-09
16	0x31aa4a79	4.9561177e-09
17	0xb394cf1f	-6.929462e-08
18	0x32d66755	2.4959869e-08
19	0xb1ed3bb3	-6.904395e-09
20	0x38261d41	3.960473e-05
21	0x37fec3bd	3.0370307e-05
22	0xb2a78a98	-1.9504384e-08
23	0x30ed13f6	1.7249693e-09
24	0xafa69769	-3.0302807e-10
25	0xb39bcdfa	-7.255217e-08
26	0x339cbf87	7.299155e-08
27	0x30f44cc3	1.7775154e-09
28	0xb21a4ff5	-8.98216e-09
29	0xb718c6b6	-9.106172e-06
30	0x3300f0a0	3.002117e-08
31	0xb128700d	-2.451091e-09
32	0xb427439e	-1.5577686e-07
33	0xb135f66f	-2.6479048e-09
34	0xb82c1904	-4.1031293e-05
35	0x339c9bc3	7.292649e-08
36	0x339bcda1	7.2551536e-08
37	0x322d2cea	1.0080138e-08
38	0x3151ad3e	3.051198e-09
39	0x37cedce1	2.4659968e-05
40	0x30ed1bb1	1.725189e-09
41	0x37f4dbcd	2.918942e-05
42	0xb34f34be	-4.8243912e-08
43	0x32ee72d5	2.7759066e-08
44	0x31165447	2.187578e-09
45	0xb2aad610	-1.9887949e-08
46	0xb39c9784	-7.2918766e-08
47	0x30f3f3ce	1.774987e-09
48	0x313dd631	2.7624873e-09
49	0x3805c527	3.1893283e-05
50	0xafc1a8a2	-3.5226316e-10
51	0x302022af	5.825695e-10
52	0x3116a14b	2.1919557e-09
53	0xba087c59	-0.00052065175
54	0x3711c06c	8.687475e-06
55	0x30fbc5e4	1.8318898e-09
56	0x32f5d7ea	2.861994e-08
57	0xb738cfdd	-1.1015652e-05
58	0x31878ad5	3.9448005e-09
59	0x30ed0350	1.7244961e-09
60	0x37f73cff	2.9473098e-05
61	0xb485b979	-2.490813e-07
62	0x31349c49	2.6282285e-09
63	0xb22a220d	-9.903045e-09
64	0xb0f78162	-1.8008388e-09
65	0x313fde78	2.7920617e-09
66	0x3048d94c	7.3068374e-10
67	0x3825cfe4	3.953268e-05
68	0x380779b0	3.229984e-05
69	0x31403ffe	2.7976053e-09
70	0xb12f0201	-2.546699e-09
71	0xb1393480	-2.6950886e-09
72	0x34c65e2a	3.6948887e-07
73	0x339549dd	6.951789e-08
74	0xb1034528	-1.910232e-09
75	0xaeb24bbb	-8.107955e-11
76	0xb13d6cc9	-2.7564957e-09
77	0xb10346ae	-1.9103186e-09
78	0x37eaff1c	2.8013768e-05
79	0xb01a5898	-5.6150773e-10
80	0xb312e817	-3.420436e-08
81	0x32fdfde2	2.9568529e-08
82	0x30f0252c	1.7472863e-09
83	0xb801d95e	-3.0958436e-05
84	0xb801d6ab	-3.0955922e-05
85	0xb3161487	-3.4943266e-08
86	0xb138eb4c	-2.6909275e-09
87	0xb7ee7bbd	-2.8429431e-05
88	0x38155424	3.560273e-05
89	0x37d2dcb6	2.5136727e-05
90	0xb48f382b	-2.6676693e-07
91	0xb39922ab	-7.130924e-08
92	0xb3235141	-3.8025295e-08
93	0x30fa3fb4	1.8208e-09
94	0x30eb0e02	1.7102482e-09
95	0xb39c9ec6	-7.293197e-08
96	0x30eacf06	1.708458e-09
97	0xb0ecfca8	-1.7243069e-09
98	0x3102be7b	1.9025765e-09
99	0x3b14f7b8	0.002273066
100	0xbbe77268	-0.007063199
101	0x3dbcb8f3	0.09214964
102	0xb807d3f8	-3.238392e-05
103	0x32cc1505	2.3758284e-08
104	0x302ca5d6	6.28089e-10
105	0x376f69c5	1.42701365e-05
106	0xb28c2b83	-1.6317932e-08
107	0x37770fb2	1.4726002e-05
108	0xb80bf450	-3.3367716e-05
109	0x310f865e	2.0885618e-09
110	0xb397539c	-7.046694e-08
111	0x30e3b486	1.6567732e-09
112	0x33366102	4.2463405e-08
113	0x3328b433	3.927944e-08
114	0xb82498cd	-3.9242954e-05
115	0x312edfb0	2.5447484e-09
116	0x312b8635	2.4960063e-09
117	0x37d81173	2.5757332e-05
118	0x38283e72	4.0112478e-05
119	0x312f75cc	2.5532811e-09
120	0xb82bb588	-4.093864e-05
121	0x37fce492	3.0147177e-05
122	0x312635d8	2.4186786e-09
123	0x30391a9e	6.7340433e-10
124	0xb26984ff	-1.3592625e-08
125	0x2ec6293d	9.011323e-11
126	0xb0ea966e	-1.7068496e-09
127	0x3a12d293	0.0005600836
128	0xb39c933c	-7.291098e-08
129	0x3780d447	1.5357638e-05
130	0x335aec1c	5.097182e-08
131	0xb395da57	-6.978069e-08
132	0xb15b7460	-3.1934846e-09
133	0x3126b678	2.42599e-09
134	0x30eb13e1	1.710415e-09
135	0x312b0012	2.4883815e-09
136	0x37d32ab0	2.5173038e-05
137	0xb12d579a	-2.522461e-09
138	0x37f9d24a	2.9781037e-05
139	0x38f5a133	0.00011712536
140	0xafd101b9	-3.8018103e-10
141	0xb82f95ee	-4.1862884e-05
142	0x3111eeea	2.1236084e-09
143	0x30f4fb39	1.7824738e-09
144	0x314e54f9	3.0025247e-09
145	0x382060e1	3.8237198e-05
146	0x3809c06a	3.2842545e-05
147	0xafa22b6b	-2.949848e-10
148	0x2f40d2f8	1.753725e-10
149	0x32eca188	2.7547472e-08
150	0x32f3df22	2.8390392e-08
151	0xb1539db2	-3.079418e-09
152	0xb7f00ecd	-2.8617122e-05
153	0x3806cf26	3.214101e-05
154	0x37ee9616	2.84417e-05
155	0xb8020f60	-3.1008734e-05
156	0xb132a824	-2.5997986e-09
157	0x339cd0f3	7.302324e-08
158	0xb10f9dc7	-2.0898925e-09
159	0x380e1999	3.3879278e-05
160	0xb7edf09f	-2.836465e-05
161	0xafb5b7f1	-3.3054406e-10
162	0x37f68137	2.9385656e-05
163	0x313a4294	2.7104408e-09
164	0xafbfbe65	-3.487798e-10
165	0xb2daa56b	-2.5453764e-08
166	0xb39bd4ac	-7.256435e-08
167	0x382ea9bf	4.164292e-05
168	0x301aa6f3	5.626212e-10
169	0xb105b7f8	-1.9458621e-09
170	0xb394a0b8	-6.9210216e-08
171	0xb829191a	-4.0316118e-05
172	0x3940618d	0.00018346887
173	0x30f50fd9	1.78306e-09
174	0xb10db369	-2.0620183e-09
175	0xb556a5e4	-7.9962615e-07
176	0x32bef325	2.222948e-08
177	0xb3383f7a	-4.289857e-08
178	0x37ff8fdd	3.046536e-05
179	0x30f6cf32	1.7957744e-09
180	0x339bd6ff	7.2568575e-08
181	0x3103b3ea	1.9165278e-09
182	0x310663d6	1.9556317e-09
183	0xb0eaeb7f	-1.7092673e-09
184	0xb3954b12	-6.9520084e-08
185	0xb12bf66e	-2.5023854e-09
186	0x312f4eba	2.5510603e-09
187	0xb912b471	-0.00013990865
188	0x3808f7be	3.2655655e-05
189	0xb1aab050	-4.9676956e-09
190	0xb21dd41e	-9.186833e-09
191	0xb107112a	-1.9654842e-09
192	0x38053710	3.1760952e-05
193	0x31bfa14c	5.577169e-09
194	0x3631d46a	2.6498697e-06
195	0xb136b42c	-2.6586902e-09
196	0x32d1695c	2.4378714e-08
197	0xb1034b23	-1.910572e-09
198	0xbd505f9b	-0.050872426
199	0x3ddf2441	0.10895587
200	0x3d3f1b6c	0.04665701
201	0x3825ef50	3.9561943e-05
202	0xb7ea8828	-2.7958376e-05
203	0xb81d08c3	-3.7439877e-05
204	0x37a21323	1.9320816e-05
205	0xb34f6c96	-4.82947e-08
206	0xb10b9875	-2.0313824e-09
207	0xb807a5d9	-3.2340966e-05
208	0xb11c5979	-2.2751847e-09
209	0xb05f361e	-8.120383e-10
210	0x312cba33	2.5135136e-09
211	0x311407c3	2.1541247e-09
212	0x31038208	1.9136923e-09
213	0xb79cc7f3	-1.8689758e-05
214	0x2fc8fcb2	3.655934e-10
215	0xb130b496	-2.5714022e-09
216	0x37918232	1.7345974e-05
217	0x302655a6	6.051216e-10
218	0xb791da33	-1.7386954e-05
219	0x380540b1	3.176992e-05
220	0x31a99342	4.9352886e-09
221	0x30eca202	1.7217305e-09
222	0xb2ddbe60	-2.5814359e-08
223	0xb1209c35	-2.3371858e-09
224	0x339ca58c	7.294429e-08
225	0x339507d0	6.939774e-08
226	0xb0ecf575	-1.7241023e-09
227	0xb0d47330	-1.5457768e-09
228	0x3138576f	2.6825224e-09
229	0xb04f799f	-7.5478995e-10
230	0xb805e303	-3.1921092e-05
231	0xb103680a	-1.9122148e-09
232	0xb12bb4e2	-2.4986595e-09
233	0xb39c99ad	-7.2922695e-08
234	0xb39c1733	-7.268536e-08
235	0x313e4a5d	2.769091e-09
236	0xb39be9a6	-7.2602504e-08
237	0xb10e8e38	-2.0744562e-09
238	0xb39bcb20	-7.254698e-08
239	0xb8dac799	-0.00010432228
240	0xb8255df3	-3.9426563e-05
241	0x310805a4	1.979381e-09
242	0x2fd8e324	3.9451564e-10
243	0xb8081085	-3.244031e-05
244	0x30ddfc94	1.6151653e-09
245	0x34891f32	2.5540936e-07
246	0x30fa3b90	1.8206823e-09
247	0xb12993c3	-2.467673e-09
248	0xb394d2f8	-6.930162e-08
249	0xb73c255f	-1.1214374e-05
250	0x37eb4c5f	2.8049746e-05
251	0xb1690b3f	-3.3912355e-09
252	0xb826f993	-3.980992e-05
253	0x31d4b136	6.1901586e-09
254	0xb39bcb3a	-7.254717e-08
255	0xb0fa2dc0	-1.8202897e-09

0.global_feat.0.ConvLSTM.cell_list.0.conv.bias f4 [128]
0	0xbca5fee5	-0.020263145
1	0x3c208fe7	0.009799934
2	0xbc6f14d3	-0.014592367
3	0xbc810eb7	-0.015754087
4	0xbc1a5e78	-0.009421937
5	0xbc7e151e	-0.015507964
6	0xbb9a98dc	-0.0047179293
7	0x3c6e9bcd	0.014563513
8	0xbc37d296	-0.011219641
9	0x3cc28a97	0.023747725
10	0xbc3d720c	-0.011562835
11	0xbbc24eac	-0.0059297886
12	0xbc58c74a	-0.013231108
13	0xbb07b743	-0.0020708598
14	0x3c135770	0.008993015
15	0xbc630e44	-0.013858382
16	0xbbc30e59	-0.005952638
17	0xbc05c4e2	-0.008164616
18	0xbbdb9742	-0.006701381
19	0x3c59997f	0.013281225
20	0xbc49f036	-0.012325337
21	0xbaff8a2c	-0.0019496134
22	0xbc7b5961	-0.015341134
23	0xbacf9677	-0.0015837689
24	0xbcb6d644	-0.022318967
25	0x3a9494a4	0.0011335802
26	0xbbde13ed	-0.0067772777
27	0xbc455204	-0.01204348
28	0x3a282d68	0.00064154575
29	0xbca2b36a	-0.019860942
30	0xbc40c2f9	-0.011765235
31	0xbb8284b9	-0.003983107
32	0x37ff4641	3.0431083e-05
33	0x37f6dbaa	2.9427774e-05
34	0xb3052a3b	-3.1004884e-08
35	0xb2ebaa87	-2.7435147e-08
36	0x336de413	5.5388295e-08
37	0x374c67a7	1.2183481e-05
38	0x37d42567	2.5289786e-05
39	0x382a228b	4.056333e-05
40	0x30f4b48c	1.7804651e-09
41	0x30f44cc3	1.7775154e-09
42	0x3613fe83	2.2052852e-06
43	0xb1a08b6c	-4.6724633e-09
44	0xb795aef0	-1.7843646e-05
45	0x335df2b5	5.1676313e-08
46	0xb04f77b9	-7.54763e-10
47	0xb820eeb0	-3.8369268e-05
48	0xb0f9fa70	-1.8188313e-09
49	0xb800feb6	-3.0754796e-05
50	0x339c727c	7.285141e-08
51	0x303a5a6c	6.7794903e-10
52	0xb114b335	-2.1638702e-09
53	0x342c0683	1.6021117e-07
54	0xb7eab94f	-2.7981265e-05
55	0x31de9260	6.4776913e-09
56	0x33299e13	3.9492146e-08
57	0x37f6a2fa	2.9401377e-05
58	0x33152454	3.4724806e-08
59	0xb105f97a	-1.9495858e-09
60	0xb7510550	-1.2458608e-05
61	0x319b5528	4.520775e-09
62	0x38d322aa	0.00010067721
63	0xb890e672	-6.909379e-05
64	0xbc350b57	-0.011050067
65	0x3a44bcd4	0.0007504944
66	0xbbccd93d	-0.0062514828
67	0xbc73be18	-0.014876865
68	0xbc15a72f	-0.009134098
69	0xbb8f5541	-0.0043741767
70	0xbb9ab345	-0.0047210776
71	0x3d29acdb	0.041424613
72	0xbc2b2d05	-0.010447745
73	0x3c899983	0.016796833
74	0xbab03443	-0.001344331
75	0xbbc275ba	-0.0059344443
76	0xbc5bb58a	-0.0134099815
77	0xbb07d27d	-0.0020724826
78	0x3c67a990	0.014139548
79	0xbc69d59c	-0.01427212
80	0x3c99a309	0.018754499
81	0xbc05e07b	-0.008171196
82	0xbbdbad8a	-0.006704037
83	0x3c507b74	0.012724746
84	0xbc57ff6f	-0.013183459
85	0xbaff8bec	-0.0019496656
86	0xbc4b5bc0	-0.012412012
87	0xbacfbe39	-0.0015849537
88	0xbcbb0910	-0.02283147
89	0xbaeb5f32	-0.0017957448
90	0xbbde1d18	-0.0067783706
91	0xbc601e37	-0.013679079
92	0x3a4da1d7	0.00078442454
93	0xbc3e30ad	-0.011608285
94	0xbc40a3ed	-0.011757833
95	0xbb82a6af	-0.0039871554
96	0xbdb9d440	-0.090736866
97	0xbd24917f	-0.04017782
98	0xbc8b9510	-0.017038852
99	0xbdbc15a3	-0.091838144
100	0x3d0082df	0.03137481
101	0xbca76127	-0.020432068
102	0xbbf1b344	-0.0073761065
103	0xbdd3b34b	-0.10336932
104	0xbcbf2dc4	-0.023337252
105	0x3e193401	0.14961244
106	0x3cde11af	0.027108042
107	0x3b973638	0.0046146177
108	0x3d41ec28	0.047344357
109	0xba79c6ff	-0.0009528249
110	0xbcd1e035	-0.025619606
111	0x3d0ae1c3	0.03390671
112	0x3ce72b7c	0.028218977
113	0xbbab06f6	-0.0052193357
114	0xbbace02d	-0.0052757473
115	0xbd1dcdf3	-0.038526487
116	0xbd01eaf6	-0.031718217
117	0x3982a34e	0.00024917204
118	0xbd569d9e	-0.05239641
119	0x380f431a	3.415635e-05
120	0xbd370fd8	-0.044692844
121	0x3d8045c3	0.06263306
122	0xbb631034	-0.003464711
123	0xbdcecf7f	-0.100981705
124	0x3d00c51f	0.03143799
125	0xbd009fff	-0.031402584
126	0x3c5ac315	0.013352175
127	0x3b457483	0.003012926

0.global_feat.0.globalnet.0.weight f4 [64, 32, 9, 1]
0	0xba1a54e1	-0.0005887282
1	0x3ac51245	0.0015035352
2	0xbafc07de	-0.0019228419
3	0xb861675d	-5.3740445e-05
4	0xb9f4acc5	-0.0004666803
5	0x3a0ae014	0.00052976725
6	0x3b08adf1	0.002085563
7	0x3ae6aacf	0.0017598512
8	0x3b35dd94	0.002775048
9	0x3a970799	0.001152265
10	0x3b27c994	0.0025602328
11	0x3b54d35a	0.0032474608
12	0x3b3a3abb	0.0028416354
13	0x3b5340c4	0.0032234648
14	0x3b329925	0.0027251926
15	0x39ed59f8	0.00045271195
16	0x3a4643fa	0.000756323
17	0x3adff975	0.0017087894
18	0x39a4a045	0.00031399928
19	0xba43d234	-0.00074699824
20	0xb90572c1	-0.00012726618
21	0x3a757c85	0.0009364563
22	0x3aa393bc	0.0012479941
23	0x3aa637ad	0.0012681388
24	0x39f7b321	0.00047244973
25	0x3b1f8d2e	0.0024345624
26	0x3b38bc01	0.002818823
27	0x39474429	0.0001900351
28	0x3bc58fe7	0.0060291174
29	0x3b6f2f1a	0.003649658
30	0x3b8ac7cf	0.004235245
31	0x3b9101fa	0.0044252845
32	0x3b7cb2c5	0.0038558703
33	0x3bb71ebb	0.00558838
34	0x3bae25f6	0.005314584
35	0x3ba6c9c1	0.005089969
36	0x3a35f7d9	0.0006941534
37	0x39f22d95	0.00046191798
38	0x3a1e5ddc	0.0006041208
39	0x39caf6bd	0.00038712277
40	0x39b99340	0.0003539566
41	0x386eeb96	5.696303e-05
42	0x38f10a90	0.00011493743
43	0xba0057bf	-0.00048958877
44	0xb9ac5199	-0.00032867191
45	0x39965a1d	0.0002867737
46	0x38b7343d	8.73585e-05
47	0x3761d49d	1.3460548e-05
48	0xb9d7c941	-0.0004115794
49	0xb9cb1443	-0.00038734273
50	0xba2cb034	-0.00065875356
51	0xb9d3775b	-0.00040333983
52	0xba48f746	-0.0007666241
53	0x39c3700c	0.0003727678
54	0xb99f8738	-0.0003042759
55	0xba08d924	-0.0005220345
56	0xb9f572ab	-0.00046815476
57	0xb9800b0a	-0.00024422287
58	0xb8cc6fa6	-9.748274e-05
59	0xb94a77aa	-0.000193088
60	0xb94ec332	-0.00019718407
61	0x38ca01e1	9.6324606e-05
62	0x3848d86f	4.7885285e-05
63	0x3b109a5e	0.0022064666
64	0x3b340223	0.0027467094
65	0xba8df15e	-0.0010829379
66	0x3ad17bc8	0.0015982324
67	0xb9b90e3b	-0.00035296552
68	0xbb405f0e	-0.0029353532
69	0x39881aa9	0.00025959805
70	0x39908aed	0.00027569328
71	0xbaa0543d	-0.0012232136
72	0x3a146680	0.00056610256
73	0xb9c6b65d	-0.00037901374
74	0xba5a01b2	-0.00083162927
75	0x39ce5177	0.00039352078
76	0x39dd2cb0	0.000421857
77	0x3a3a6854	0.0007110883
78	0xba6d0fde	-0.0009043197
79	0x3940731d	0.0001835343
80	0x3a00265f	0.000488853
81	0xbb2d3785	-0.0026430797
82	0xbbc1e604	-0.0059173126
83	0xbb1ee778	-0.0024246853
84	0xbb2651c7	-0.0025378333
85	0xbb13157c	-0.0022443226
86	0xbb472649	-0.003038781
87	0xbb4f6eb6	-0.0031651682
88	0x381360fb	3.513785e-05
89	0xbb483d0e	-0.003055397
90	0xb9e8d230	-0.0004440709
91	0xba009f7f	-0.0004906579
92	0xba902173	-0.0010996297
93	0xbaf821fd	-0.0018931028
94	0xbacb2b23	-0.0015500527
95	0xbae9c437	-0.0017834966
96	0xb9313664	-0.00016900297
97	0xba41c7b9	-0.0007392127
98	0x3a414f29	0.00073741615
99	0x39eb0caf	0.00044832143
100	0x39e38e37	0.00043402772
101	0x39c5ce68	0.00037728553
102	0x39d1ea92	0.00040038355
103	0x3992395b	0.00027890023
104	0x39436758	0.00018635148
105	0x3983b045	0.00025117598
106	0x394f1ccb	0.00019751785
107	0x39ae3bac	0.00033232325
108	0xbb01b707	-0.001979293
109	0xba8ea07b	-0.0010881567
110	0xba9bb342	-0.0011878985
111	0xbb028067	-0.001991296
112	0xbaade0fd	-0.0013265904
113	0xb9f8e428	-0.00047472236
114	0xbadf5969	-0.0017040196
115	0xbad034fc	-0.0015884931
116	0xba49f32c	-0.0007703777
117	0xb825ec3c	-3.9559076e-05
118	0x38a985f7	8.083501e-05
119	0x38ab8e41	8.180412e-05
120	0xb68defa5	-4.2300258e-06
121	0x386bb8f9	5.6200635e-05
122	0xb7d74d29	-2.5665928e-05
123	0x38de5ce1	0.00010603085
124	0x396f2004	0.00022804743
125	0x3984dfcf	0.00025343752
126	0x3aa65c0b	0.0012692226
127	0x3ad18411	0.0015984793
128	0x3b0e74e4	0.0021737153
129	0x3ac9c73b	0.0015394458
130	0x3af209bb	0.0018466035
131	0x3b30b0b8	0.0026960801
132	0x3b02c843	0.001995579
133	0x3b4fb4b0	0.0031693392
134	0x3b0d2249	0.0021535328
135	0xba7d647d	-0.0009666158
136	0xbb1175ce	-0.0022195461
137	0xba6fa5c0	-0.0009141825
138	0xbaaf5e9a	-0.0013379634
139	0xba991481	-0.0011679084
140	0xbae4a724	-0.0017444831
141	0xba185aa5	-0.0005811847
142	0xba2b044a	-0.00065237714
143	0xbada8200	-0.0016670823
144	0x3a5d01a8	0.0008430728
145	0x3a15d7aa	0.00057160354
146	0x3b2639ca	0.0025364035
147	0x3b3a5c6f	0.0028436442
148	0x3b99f3b8	0.004698243
149	0x3b9afe9d	0.0047300593
150	0x3b5f520b	0.0034076
151	0x3b390227	0.0028230043
152	0x3b492c70	0.0030696653
153	0xb985ef44	-0.00025546004
154	0xb9805c3a	-0.00024482777
155	0xb98cf60c	-0.000268862
156	0xb95b588a	-0.00020918451
157	0xb8bc7f17	-8.988211e-05
158	0xb8c18c67	-9.229109e-05
159	0xb8b85bce	-8.790904e-05
160	0x3916b857	0.00014373787
161	0x39072b89	0.00012890821
162	0xb9a23646	-0.00030939485
163	0xb99fc218	-0.00030471454
164	0xb9975341	-0.00028862993
165	0xb98dacdb	-0.00027022403
166	0xb889e898	-6.575993e-05
167	0xb8bfd9bb	-9.148145e-05
168	0xb9160ad6	-0.00014309151
169	0x388cb833	6.71003e-05
170	0x38f02613	0.00011451184
171	0xba603366	-0.0008552581
172	0x3aa57ab7	0.0012625073
173	0xb7b0e15b	-2.1085774e-05
174	0x3a4ce63b	0.00078162894
175	0x3ac32766	0.0014889061
176	0x3a8ef6ce	0.0010907294
177	0x3ad241c4	0.0016041328
178	0x3b67e0b8	0.0035381746
179	0x3b368157	0.0027848089
180	0x3a870b93	0.0010303132
181	0x3b3e7e98	0.0029067155
182	0x3b1eccdd	0.0024230995
183	0x3b18df87	0.0023326592
184	0x3b1359d9	0.0022483973
185	0x3ac8491a	0.0015280575
186	0x3b921645	0.004458221
187	0x3b8bac52	0.0042624855
188	0x3b52230e	0.0032064351
189	0x38085cec	3.2511467e-05
190	0x38981efb	7.2536954e-05
191	0x3880fe02	6.150828e-05
192	0x3886900a	6.416447e-05
193	0xb81707c4	-3.6008438e-05
194	0xb811f5f4	-3.4799756e-05
195	0x38b012b1	8.3958155e-05
196	0x38bcb888	8.99891e-05
197	0x372ed1fb	1.0420098e-05
198	0xb7dd7f58	-2.6404552e-05
199	0xb9972213	-0.00028826352
200	0xba65e970	-0.00087704416
201	0x395e67c9	0.00021210233
202	0xb99f3817	-0.00030368633
203	0xba73f7c5	-0.0009306635
204	0xb8ebd444	-0.00011245211
205	0x3a9c4f49	0.0011925484
206	0x3a2538f6	0.00063027383
207	0xb89eb818	-7.568317e-05
208	0xb90f536c	-0.0001366862
209	0xb904b9eb	-0.00012657761
210	0xb8fd2287	-0.00012070411
211	0x37903ec5	1.7195367e-05
212	0x35343846	6.7137114e-07
213	0xb9075243	-0.00012905248
214	0xb8d555bc	-0.00010172601
215	0x37bc9196	2.247914e-05
216	0xba779d8b	-0.0009445778
217	0x398f67c4	0.00027352397
218	0xbb120450	-0.0022280402
219	0x3847ffe3	4.768361e-05
220	0xba75531f	-0.00093583943
221	0xbaa8ecde	-0.0012887975
222	0x3a6872e9	0.00088672206
223	0x3abda2a2	0.0014468024
224	0x3aa2878a	0.0012400013
225	0xbafaf48f	-0.001914637
226	0xbb9d2fb7	-0.004796948
227	0xbb8ea00d	-0.0043525756
228	0xbb8bb84e	-0.004263914
229	0xbb87d97e	-0.0041458
230	0xbb5ffff8	-0.003417967
231	0xbb875a16	-0.004130612
232	0xbbe8703b	-0.007093457
233	0xbbe88952	-0.007096448
234	0xb99aafec	-0.0002950424
235	0xb99836fa	-0.0002903266
236	0xb99c2014	-0.0002977854
237	0xb9a02660	-0.0003054617
238	0xb8d05b8b	-9.935264e-05
239	0xb852da0f	-5.0270985e-05
240	0xb930b0f0	-0.00016850582
241	0x37e4f5c2	2.7294158e-05
242	0x3932e7c2	0.0001706174
243	0x3a6aace1	0.00089521526
244	0x3b6e680d	0.0036377937
245	0x39969b85	0.000287261
246	0x3b34e2b7	0.0027600953
247	0x39dedf8c	0.00042509695
248	0xb982078c	-0.00024801155
249	0x3b3d4e8b	0.0028885927
250	0x3b121e99	0.002229607
251	0x3b2a2452	0.002596159
252	0xba69a7e0	-0.000891326
253	0xbb9fd338	-0.004877474
254	0xbb7435ef	-0.0037263592
255	0xbb92e845	-0.004483255

0.global_feat.0.globalnet.1.weight f4 [64]
0	0x3c0a53e8	0.008442856
1	0xbb0239c9	-0.0019870868
2	0x3c6af140	0.014339745
3	0x3ab7987f	0.0014007239
4	0x398757f1	0.00025814728
5	0x3f173bd1	0.5907565
6	0x3c9b7cd0	0.018980414
7	0xb9c9b601	-0.0003847331
8	0x3acc12e7	0.0015569598
9	0x3e13e6e6	0.1444355
10	0x3e0d25f2	0.13784006
11	0x3e6cc676	0.23122582
12	0x3a846f0e	0.0010103898
13	0xbb07bb60	-0.002071105
14	0x3d513592	0.05107648
15	0x3d318c56	0.043346725
16	0x3e4cc2a4	0.19996125
17	0x3da45989	0.0802489
18	0x3e35e234	0.17762071
19	0x3e006796	0.12539515
20	0x3f0e9816	0.55700815
21	0x3e3e0397	0.18556057
22	0x3eb837aa	0.35979968
23	0x3da86113	0.082216404
24	0x3e648b9f	0.22318886
25	0x3f796e4f	0.9743394
26	0x3ed39af4	0.41329157
27	0x3ef5b5ec	0.47990358
28	0x3ea37413	0.31924495
29	0x3de6ce37	0.11269801
30	0x3e5e980b	0.21737687
31	0x3d17be54	0.037046745
32	0x3edd1cb7	0.4318597
33	0x3ecd9aeb	0.40157256
34	0x3ef33bfb	0.475067
35	0x3e9c6aa9	0.30550125
36	0x3de63dcf	0.11242258
37	0x3d39b8b2	0.045342155
38	0x3e5e662b	0.21718661
39	0x3e778949	0.24173464
40	0x3e838dd5	0.25694147
41	0x3ead4527	0.33841822
42	0x3e66b563	0.22530131
43	0x3e2e11bd	0.16998954
44	0x3e67a3e4	0.22621113
45	0x3e80fe42	0.25193983
46	0x3ea529f0	0.32258558
47	0x3f1907c9	0.59777504
48	0x3e955ce9	0.29172447
49	0x3e8bf747	0.27337095
50	0x3f176a3e	0.5914649
51	0x3e5b441b	0.21412699
52	0x3ecfbb78	0.40572715
53	0x3e725251	0.23664214
54	0x3f493414	0.7859509
55	0x3da79a8b	0.081837736
56	0x3de809e0	0.113300085
57	0x3ea16889	0.31525066
58	0x3ec218d4	0.37909567
59	0x3f2c5ce6	0.6732925
60	0x3f0a7fb9	0.5410114
61	0x3cfff04e	0.031242516
62	0x3edf8043	0.43652543
63	0x3e16a290	0.1471045

0.global_feat.0.globalnet.1.bias f4 [64]
0	0xbbbc2625	-0.005741852
1	0xba7f1598	-0.0009730696
2	0xba03d21e	-0.00050285633
3	0xbb1236f5	-0.002231059
4	0xbbb715a7	-0.005587298
5	0x3cdfd6ff	0.027324198
6	0xbc2fe8e1	-0.010736675
7	0xbbaa1004	-0.0051898975
8	0xbb15e0b2	-0.0022869525
9	0xbc0f80db	-0.008758749
10	0x3aaf63bf	0.0013381167
11	0x3c92c941	0.017918231
12	0xbcc3d05e	-0.023903068
13	0x3b193355	0.0023376544
14	0xbc4ed5ad	-0.012624186
15	0xbc64286e	-0.013925655
16	0xbc692b68	-0.01423154
17	0xbbd1b943	-0.0064002587
18	0xbcdf1b8c	-0.027234815
19	0x3b00aa36	0.0019632704
20	0xbbaf097b	-0.0053417063
21	0x3cb27f6d	0.021789277
22	0x3cdb92e2	0.026803438
23	0xbb6aec51	-0.0035846422
24	0xbc0bcd7a	-0.008532876
25	0x3d4998c1	0.049217943
26	0x3c845ade	0.01615661
27	0x3ce2fcf3	0.027708506
28	0xbcaff0d7	-0.021477146
29	0x3a02fd2a	0.0004996831
30	0xbc7a440f	-0.0152750155
31	0xbc3af567	-0.011411048
32	0x3ba63120	0.005071774
33	0x3b913948	0.0044318773
34	0xbc842bdf	-0.0161342
35	0x3c1781f0	0.009247288
36	0xbc634255	-0.013870795
37	0xbcd366f4	-0.025805928
38	0xbcabdfa9	-0.020980673
39	0xbb71582f	-0.0036826243
40	0x3c051f61	0.008125157
41	0xbc80a097	-0.015701575
42	0x3bcdd679	0.0062816706
43	0x3c2f6d35	0.010707189
44	0xbc4ea726	-0.0126130935
45	0x3c16ce33	0.009204435
46	0x3c5ebb04	0.013594393
47	0xbc01cdb2	-0.007922577
48	0x3abf9126	0.0014615401
49	0xbba2a79a	-0.0049638273
50	0xbb8c9685	-0.0042904043
51	0x3c0c8e4b	0.008578847
52	0x3c8ea095	0.017410556
53	0x3bdca608	0.0067336597
54	0xbc78eb08	-0.015192755
55	0xbbe35ff1	-0.0069389273
56	0xbbce7c01	-0.0063014035
57	0xbca96f41	-0.020682933
58	0x3d275253	0.040849995
59	0xbc36ed07	-0.01116491
60	0x3b531d86	0.0032213642
61	0xbcf115bb	-0.029429307
62	0x3d24cf4d	0.04023676
63	0xbbb31964	-0.0054656733

0.global_feat.0.globalnet.1.running_mean f4 [64]
0	0x3bc1668d	0.0059021176
1	0xbac739f4	-0.0015199766
2	0x3b34a19a	0.0027562142
3	0xb8f69dc6	-0.00011759582
4	0x3b1bc476	0.0023768223
5	0x3ab08c96	0.0013469632
6	0x3c3fe1e5	0.011711572
7	0xb92fdc83	-0.00016771448
8	0xb9818581	-0.00024704266
9	0x3c701b73	0.014654982
10	0xbbb4b366	-0.00551455
11	0x3ae0ad94	0.0017141574
12	0xba901875	-0.0010993617
13	0x3b12be67	0.002239132
14	0x3c8bca12	0.017064128
15	0x3c794518	0.015214227
16	0x3c763205	0.015026574
17	0x3c16732e	0.009182734
18	0x3c845e80	0.016158342
19	0x3a87383c	0.0010316442
20	0x3c0c8ac6	0.008578008
21	0x3c73d816	0.014883062
22	0xbc3c5620	-0.011495143
23	0xbc163cbf	-0.009169756
24	0x3c79d641	0.015248836
25	0x3b6947be	0.003559574
26	0x3c298216	0.010345956
27	0xbb40e986	-0.0029436066
28	0x3c2b7054	0.010463793
29	0x3c5cb749	0.013471433
30	0xbc2c30e3	-0.010509702
31	0xbb9d7432	-0.0048051113
32	0x3b6d24e8	0.0036185328
33	0x3add8dc6	0.0016903214
34	0xbc1b1ce3	-0.009467336
35	0xbc3aa2b5	-0.011391331
36	0xbbccb286	-0.0062468676
37	0xbbb6f385	-0.005583229
38	0xbbe91b90	-0.0071138814
39	0xbadeb0b8	-0.0016989922
40	0xbbd035ec	-0.0063540842
41	0xbc4a12f7	-0.012333623
42	0xbbc1c3b5	-0.0059132227
43	0xbc951e20	-0.018202841
44	0x3aff4f00	0.00194785
45	0xbbce1eb1	-0.00629028
46	0xbbb588c1	-0.005539984
47	0xbbe5a4c5	-0.0070081674
48	0xbb211a6d	-0.0024582401
49	0xbbb2d834	-0.0054579023
50	0xb9121c26	-0.00013934131
51	0xbc854e11	-0.016272577
52	0xbb9c66a5	-0.0047729784
53	0xbc731698	-0.01483693
54	0xba801574	-0.0009772019
55	0xbca3c3c6	-0.019990813
56	0xbc0714cf	-0.008244707
57	0x3b5d8147	0.003379898
58	0x3aabf7a7	0.0013120071
59	0xbc1ba79b	-0.0095004095
60	0xbb0b4208	-0.0021249074
61	0xbc0bf255	-0.008541663
62	0xbbfbb44c	-0.007681405
63	0xbc73a778	-0.014871471

0.global_feat.0.globalnet.1.running_var f4 [64]
0	0x39a7fc49	0.0003204069
1	0x38b3cfe2	8.574106e-05
2	0x39f328e3	0.00046379035
3	0x38819e9b	6.180742e-05
4	0x38898c3c	6.55879e-05
5	0x3a552669	0.0008131029
6	0x3996f630	0.00028793653
7	0x383ce7f3	4.5038712e-05
8	0x386c44ff	5.6331042e-05
9	0x3a570b3b	0.00082032726
10	0x3a8e9f65	0.0010881244
11	0x3a557f5c	0.0008144283
12	0x38a9fa4e	8.105171e-05
13	0x393c8dca	0.00017981898
14	0x3a87ec6c	0.0010370142
15	0x3a5ac391	0.00083451817
16	0x3a740468	0.0009308518
17	0x3a921fe5	0.0011148421
18	0x3afa8a6a	0.0019114737
19	0x3a1697b8	0.0005744654
20	0x3a92de4b	0.0011205164
21	0x3b44efbf	0.0030050126
22	0x3a0abd7a	0.00052925164
23	0x3b300fa0	0.0026864782
24	0x3ac0a25c	0.0014696824
25	0x3a4a94a2	0.00077278365
26	0x3a5f0c7c	0.0008508635
27	0x3b1f9d1d	0.0024355121
28	0x3a480244	0.0007629732
29	0x3b8bae8c	0.004262751
30	0x3aaf0a83	0.0013354573
31	0x3ab16a89	0.0013535778
32	0x3a361629	0.0006946051
33	0x3a8bb75b	0.0010659503
34	0x3b26f685	0.0025476527
35	0x3b19a131	0.0023442025
36	0x3a953115	0.0011382425
37	0x3ad8c9ba	0.0016539611
38	0x3b05a2bc	0.0020391187
39	0x3aac1886	0.0013129867
40	0x3aa4b87b	0.0012567186
41	0x3aa26b87	0.0012391665
42	0x3b63d88a	0.0034766519
43	0x3abd1028	0.0014424371
44	0x3b3a330c	0.0028411774
45	0x3aa803b7	0.001281849
46	0x3aaf2ee9	0.0013365421
47	0x3b21c5a9	0.0024684465
48	0x3a97b07a	0.001157298
49	0x39f1f0a1	0.00046146385
50	0x3a4e8dce	0.0007879407
51	0x3aa86019	0.0012846022
52	0x3b24e081	0.0025158229
53	0x3a8a8244	0.0010567387
54	0x3a71f3c4	0.00092297443
55	0x3a98f74e	0.0011670382
56	0x3a96ffb5	0.0011520298
57	0x3b1d7714	0.0024027275
58	0x3ac8f666	0.0015332222
59	0x3ab875b3	0.0014073163
60	0x3a48cbba	0.0007659752
61	0x3a96eb05	0.0011514133
62	0x3a3261f2	0.0006804756
63	0x3adc658f	0.0016814935

0.global_feat.0.positionalencoding.pe f4 [1, 500, 64]
0	0x00000000	0.0
1	0x3f800000	1.0
2	0x00000000	0.0
3	0x3f800000	1.0
4	0x00000000	0.0
5	0x3f800000	1.0
6	0x00000000	0.0
7	0x3f800000	1.0
8	0x00000000	0.0
9	0x3f800000	1.0
10	0x00000000	0.0
11	0x3f800000	1.0
12	0x00000000	0.0
13	0x3f800000	1.0
14	0x00000000	0.0
15	0x3f800000	1.0
16	0x00000000	0.0
17	0x3f800000	1.0
18	0x00000000	0.0
19	0x3f800000	1.0
20	0x00000000	0.0
21	0x3f800000	1.0
22	0x00000000	0.0
23	0x3f800000	1.0
24	0x00000000	0.0
25	0x3f800000	1.0
26	0x00000000	0.0
27	0x3f800000	1.0
28	0x00000000	0.0
29	0x3f800000	1.0
30	0x00000000	0.0
31	0x3f800000	1.0
32	0x00000000	0.0
33	0x3f800000	1.0
34	0x00000000	0.0
35	0x3f800000	1.0
36	0x00000000	0.0
37	0x3f800000	1.0
38	0x00000000	0.0
39	0x3f800000	1.0
40	0x00000000	0.0
41	0x3f800000	1.0
42	0x00000000	0.0
43	0x3f800000	1.0
44	0x00000000	0.0
45	0x3f800000	1.0
46	0x00000000	0.0
47	0x3f800000	1.0
48	0x00000000	0.0
49	0x3f800000	1.0
50	0x00000000	0.0
51	0x3f800000	1.0
52	0x00000000	0.0
53	0x3f800000	1.0
54	0x00000000	0.0
55	0x3f800000	1.0
56	0x00000000	0.0
57	0x3f800000	1.0
58	0x00000000	0.0
59	0x3f800000	1.0
60	0x00000000	0.0
61	0x3f800000	1.0
62	0x00000000	0.0
63	0x3f800000	1.0
64	0x3f576aa4	0.84147096
65	0x3f0a5141	0.54030234
66	0x3f2e7ace	0.68156135
67	0x3f3b54b0	0.731761
68	0x3f087dba	0.53316844
69	0x3f58940d	0.8460091
70	0x3ed190f0	0.4093089
71	0x3f6992c7	0.9123959
72	0x3e9f393e	0.3109836
73	0x3f734e6b	0.9504153
74	0x3e708f25	0.23492105
75	0x3f78d5f1	0.9720145
76	0x3e35233a	0.17689219
77	0x3f7bf683	0.9842302
78	0x3e0825f3	0.13295726
79	0x3f7dba28	0.99112177
80	0x3dcc7576	0.099833414
81	0x3f7eb898	0.9950042
82	0x3d996f36	0.07491915
83	0x3f7f47d1	0.9971896
84	0x3d6636ae	0.05620449
85	0x3f7f9868	0.9984193
86	0x3d2cacfb	0.042157155
87	0x3f7fc5bd	0.999111
88	0x3d01815b	0.031617504
89	0x3f7fdf3c	0.99950004
90	0x3cc23ea5	0.023711512
91	0x3f7fed93	0.99971884
92	0x3c91ab42	0.017781857
93	0x3f7ff5a3	0.99984187
94	0x3c5a7a49	0.013334819
95	0x3f7ffa2c	0.99991107
96	0x3c23d657	0.009999833
97	0x3f7ffcb9	0.99995
98	0x3bf5b916	0.0074988706
99	0x3f7ffe28	0.99997187
100	0x3bb8445a	0.0056233825
101	0x3f7ffef7	0.9999842
102	0x3b8a2e5a	0.0042169513
103	0x3f7fff6b	0.9999911
104	0x3b4f3e1c	0.0031622713
105	0x3f7fffac	0.999995
106	0x3b1b6903	0.0023713715
107	0x3f7fffd1	0.9999972
108	0x3ae91520	0.0017782785
109	0x3f7fffe6	0.99999845
110	0x3aaec98b	0.0013335211
111	0x3f7ffff1	0.9999991
112	0x3a83126d	0.0009999998
113	0x3f7ffff8	0.9999995
114	0x3a449489	0.000749894
115	0x3f7ffffb	0.9999997
116	0x3a136a13	0.0005623411
117	0x3f7ffffd	0.9999998
118	0x39dd1721	0.00042169637
119	0x3f7fffff	0.99999994
120	0x39a5cb61	0.00031622782
121	0x3f7fffff	0.99999994
122	0x3978a80d	0.00023713727
123	0x3f800000	1.0
124	0x393a7753	0.00017782794
125	0x3f800000	1.0
126	0x390bd46d	0.00013335208
127	0x3f800000	1.0
128	0x3f68c7b7	0.9092974
129	0xbed51133	-0.41614684
130	0x3f7f5ad9	0.99748
131	0x3d914d53	0.070948265
132	0x3f66f20a	0.9021307
133	0x3edce8b2	0.43146282
134	0x3f3f3511	0.7469035
135	0x3f2a3903	0.6649324
136	0x3f17541b	0.5911271
137	0x3f4e7bec	0.8065784
138	0x3ee9d3b5	0.45669332
139	0x3f63be69	0.8896242
140	0x3eb247f6	0.34820527
141	0x3f6ffaa6	0.93741834
142	0x3e86f082	0.26355368
143	0x3f76f2f5	0.96464473
144	0x3e4b6ff8	0.19866931
145	0x3f7ae5a5	0.9800666
146	0x3e1900d3	0.1494172
147	0x3f7d204f	0.98877424
148	0x3de5d986	0.1122313
149	0x3f7e61f3	0.9936821
150	0x3dac85af	0.084239356
151	0x3f7f170e	0.99644554
152	0x3d8170c8	0.063203394
153	0x3f7f7cf9	0.9980007
154	0x3d4230aa	0.04740969
155	0x3f7fb64e	0.9988755
156	0x3d11a55c	0.03555809
157	0x3f7fd68e	0.9993676
158	0x3cda7550	0.026667267
159	0x3f7fe8b1	0.99964434
160	0x3ca3d43e	0.019998666
161	0x3f7ff2e5	0.9998
162	0x3c75b751	0.014997319
163	0x3f7ff8a1	0.9998875
164	0x3c38439b	0.011246587
165	0x3f7ffbdb	0.99993676
166	0x3c0a2e0a	0.008433828
167	0x3f7ffdab	0.9999644
168	0x3bcf3dd8	0.006324511
169	0x3f7ffeb1	0.99998003
170	0x3b9b68e7	0.00474273
171	0x3f7fff43	0.99998873
172	0x3b691508	0.0035565514
173	0x3f7fff96	0.9999937
174	0x3b2ec980	0.0026670396
175	0x3f7fffc4	0.9999964
176	0x3b031268	0.0019999985
177	0x3f7fffdf	0.99999803
178	0x3ac49485	0.0014997876
179	0x3f7fffed	0.99999887
180	0x3a936a12	0.0011246821
181	0x3f7ffff5	0.99999934
182	0x3a5d171f	0.0008433926
183	0x3f7ffffa	0.99999964
184	0x3a25cb60	0.0006324556
185	0x3f7ffffd	0.9999998
186	0x39f8a80c	0.0004742745
187	0x3f7ffffe	0.9999999
188	0x39ba7753	0.00035565588
189	0x3f7fffff	0.99999994
190	0x398bd46d	0.00026670416
191	0x3f800000	1.0
192	0x3e1081c3	0.14112
193	0xbf7d7026	-0.9899925
194	0x3f473cde	0.7782725
195	0xbf20bfce	-0.6279267
196	0x3f7e45d7	0.9932532
197	0xbded7fab	-0.11596616
198	0x3f742163	0.95363444
199	0x3e9a1863	0.3009673
200	0x3f5009c2	0.8126489
201	0x3f152f58	0.58275366
202	0x3f2724b7	0.652904
203	0x3f41e7a2	0.7574407
204	0x3f022f6c	0.5085361
205	0x3f5c6d29	0.86104065
206	0x3ec768a7	0.3894703
207	0x3f6bc937	0.92103904
208	0x3e974e6c	0.2955202
209	0x3f7490ef	0.9553365
210	0x3e646de2	0.22307542
211	0x3f798c92	0.9748012
212	0x3e2beed7	0.16790329
213	0x3f7c5d9e	0.9858035
214	0x3e01332c	0.12617177
215	0x3f7df443	0.9920084
216	0x3dc1ffc0	0.094726086
217	0x3f7ed94f	0.99550337
218	0x3d919306	0.071081206
219	0x3f7f5a3a	0.9974705
220	0x3d5a694e	0.053323083
221	0x3f7fa2c3	0.9985773
222	0x3d23d1c5	0.039994974
223	0x3f7fcb90	0.99919987
224	0x3cf5b91f	0.0299955
225	0x3f7fe283	0.99955004
226	0x3cb84747	0.022494925
227	0x3f7fef6b	0.999747
228	0x3c8a31c6	0.016869437
229	0x3f7ff6ad	0.9998577
230	0x3c4f4446	0.012650555
231	0x3f7ffac1	0.99991995
232	0x3c1b6e0d	0.009486687
233	0x3f7ffd0d	0.999955
234	0x3be91d13	0.0071140616
235	0x3f7ffe58	0.9999747
236	0x3baecfa8	0.005334813
237	0x3f7fff11	0.99998575
238	0x3b831713	0.0040005534
239	0x3f7fff7a	0.999992
240	0x3b449b92	0.0029999954
241	0x3f7fffb5	0.9999955
242	0x3b136f60	0.0022496805
243	0x3f7fffd6	0.9999975
244	0x3add1f17	0.0016870227
245	0x3f7fffe8	0.99999857
246	0x3aa5d156	0.0012650888
247	0x3f7ffff3	0.9999992
248	0x3a78b110	0.00094868336
249	0x3f7ffff9	0.9999996
250	0x3a3a7e09	0.00071141176
251	0x3f7ffffc	0.99999976
252	0x3a0bd97e	0.0005334838
253	0x3f7ffffe	0.9999999
254	0x39d1bea4	0.00040005625
255	0x3f7fffff	0.99999994

0.global_feat.1.0.0.fn.0.keys.weight f4 [64, 64]
0	0x39280411	0.00016023243
1	0x39690b25	0.00022224763
2	0xba219bbf	-0.00061648706
3	0xb8482dea	-4.7726477e-05
4	0x39354004	0.00017285353
5	0x38906ca1	6.886689e-05
6	0x39dc8777	0.000420626
7	0xb9079914	-0.0001293163
8	0xba2f325e	-0.00066832255
9	0xb9c5bbf1	-0.00037714795
10	0xb8db5830	-0.0001045916
11	0xb8bbf5ea	-8.96266e-05
12	0xb913c374	-0.00014091824
13	0x393ed318	0.0001819845
14	0x399c5c54	0.00029823428
15	0xb97f18e2	-0.00024327965
16	0x38e6e622	0.0001101012
17	0xb9d88e8d	-0.0004130494
18	0xb92ac6dd	-0.00016286546
19	0x39e7e81a	0.00044232683
20	0x397a82ff	0.00023890658
21	0xb909dcd0	-0.00013147597
22	0x39c4fc72	0.0003757212
23	0x390c52b4	0.0001338225
24	0x368110a1	3.8464354e-06
25	0x39f6ab06	0.000470482
26	0xb973271d	-0.00023188857
27	0xb7e5ded1	-2.7402684e-05
28	0x38a6febc	7.962945e-05
29	0x388bf590	6.673776e-05
30	0x395459d7	0.00020251363
31	0x39802b35	0.00024446254
32	0xb9299c24	-0.00016175263
33	0x38d80371	0.000103003236
34	0x39f5ca28	0.0004688066
35	0x3a015970	0.00049342867
36	0x38581ae7	5.1523468e-05
37	0x39a6b60c	0.00031797623
38	0xb99dc863	-0.00030094673
39	0x39ebe06b	0.00044989897
40	0xb8a76ea7	-7.983791e-05
41	0xb92d91c3	-0.00016552866
42	0x39882950	0.00025970722
43	0x39c8832d	0.00038244706
44	0x399279db	0.0002793808
45	0x395e44ed	0.00021197247
46	0x392de020	0.00016582059
47	0x39e78a1c	0.00044162653
48	0xb94e5167	-0.00019676016
49	0xb9ca2534	-0.0003855616
50	0xb782904c	-1.5564401e-05
51	0x39eeb2ed	0.00045528208
52	0xb7c92ff6	-2.39834e-05
53	0x39ef4ba1	0.0004564198
54	0x38712904	5.7497076e-05
55	0x36c980b9	6.005252e-06
56	0x384a1060	4.8175803e-05
57	0xb95ac755	-0.00020864357
58	0x39f57999	0.0004682064
59	0xb95907d3	-0.00020697647
60	0x3775d213	1.465205e-05
61	0x383aff28	4.458349e-05
62	0xb992c017	-0.00027990408
63	0x38c7be29	9.5244795e-05
64	0xb97d8a76	-0.00024179541
65	0xb9396c1d	-0.0001768325
66	0x39191a46	0.00014601005
67	0xb951543e	-0.00019963176
68	0xb94016e7	-0.00018319079
69	0x393977aa	0.00017687553
70	0xb9b77b62	-0.00034996407
71	0x38b94cf3	8.83582e-05
72	0x399d6a2f	0.00030024486
73	0x39b3eb15	0.0003431669
74	0x3947a92a	0.00019041137
75	0x399ef46b	0.00030318214
76	0x382fb99a	4.1896106e-05
77	0xb990387d	-0.00027507907
78	0xb96ae69a	-0.00022401885
79	0x39255994	0.00015768997
80	0xb8ebf75d	-0.00011251748
81	0x39b7cea2	0.00035058433
82	0x391a648b	0.0001472404
83	0xb9685916	-0.00022158431
84	0xb6ebc5ab	-7.0265573e-06
85	0xb96d624d	-0.00022638701
86	0xb9547214	-0.00020260393
87	0x3727b2b3	9.995582e-06
88	0x369fab74	4.758529e-06
89	0xb9501837	-0.00019845447
90	0x37ee7bec	2.8429517e-05
91	0x38f4aec8	0.00011667382
92	0xb9683832	-0.00022146179
93	0xb8ceb22f	-9.856035e-05
94	0xb97072bb	-0.00022930924
95	0xb98e9681	-0.00027196485
96	0x39efbc5d	0.00045725974
97	0xb8c239a5	-9.261378e-05
98	0xb9afd4e6	-0.00033537223
99	0xba0d9938	-0.00054015545
100	0x34e5519c	4.2713953e-07
101	0xb710f264	-8.639505e-06
102	0x391fe5bc	0.00015249004
103	0xb9aa9b24	-0.00032540516
104	0x39b1232b	0.00033786273
105	0x39d7a54b	0.00041131148
106	0xb7a2f7d0	-1.9427302e-05
107	0xb91a57c8	-0.00014719286
108	0xb709cffc	-8.2142615e-06
109	0xb8075f22	-3.2275108e-05
110	0x39e1dce7	0.0004307993
111	0xb9fad615	-0.0004784322
112	0x39f0dc4a	0.00045940495
113	0xb88041b9	-6.1157574e-05
114	0x399c3f8c	0.00029801985
115	0xb98a0762	-0.00026326912
116	0xb9b78845	-0.0003500601
117	0xb956b8d7	-0.00020477489
118	0x3945c86e	0.0001886205
119	0x39a30261	0.00031091555
120	0x39d45985	0.00040502488
121	0x39989b81	0.0002910756
122	0xba129dfa	-0.00055929984
123	0x3a020fd0	0.00049614627
124	0x3996277a	0.00028639642
125	0x39193f3f	0.00014614778
126	0x39f4a968	0.00046665524
127	0x393880d5	0.00017595601
128	0xb905f9c0	-0.00012776908
129	0xb94bff81	-0.00019454771
130	0x3a1404d5	0.0005646472
131	0xb7d4e156	-2.53773e-05
132	0xb93c9635	-0.00017985034
133	0xb7ca79a0	-2.4136913e-05
134	0xb9cf56b9	-0.0003954673
135	0x391d1d4f	0.00014983605
136	0x3a1cef2f	0.0005986569
137	0x39bdd387	0.0003620649
138	0x38f2e418	0.00011581945
139	0x39078c1c	0.00012926798
140	0x39112994	0.00013843767
141	0xb954f34c	-0.0002030853
142	0xb99140a1	-0.00027704707
143	0x397e9607	0.00024279217
144	0xb92608a4	-0.00015834213
145	0x39eb5b6f	0.00044890816
146	0x392b9621	0.00016363758
147	0xb9f1428c	-0.00046016683
148	0xb93bf077	-0.0001792329
149	0x38a4dc4d	7.8611636e-05
150	0xb9a5d069	-0.0003162653
151	0xb8d25081	-0.00010028575
152	0xb772fd97	-1.44833675e-05
153	0xb9cc6f27	-0.00038992727
154	0x393ec39e	0.00018192685
155	0x387f3f1e	6.085552e-05
156	0xb8c18b39	-9.2288894e-05
157	0xb89f6df9	-7.602195e-05
158	0xb95450a4	-0.00020247936
159	0xb981ddc2	-0.0002477002
160	0x395bc4dd	0.00020958805
161	0xb8d64e18	-0.00010218861
162	0xb9f5e96f	-0.00046903963
163	0xb9f79a38	-0.00047226413
164	0xb80f005a	-3.4094184e-05
165	0xb987dcd0	-0.00025913725
166	0x39861991	0.0002557752
167	0xb9d441a9	-0.00040484712
168	0x38fb37ca	0.00011979004
169	0x3941589b	0.00018438922
170	0xb960a57f	-0.00021423957
171	0xb9b4f4a3	-0.00034514544
172	0xb96ab890	-0.00022384734
173	0xb93a2bbc	-0.00017754635
174	0xb7d6aaff	-2.5590414e-05
175	0xb9ec71e1	-0.00045098274
176	0x397f6183	0.00024355021
177	0x39a96231	0.0003230735
178	0x38b0149d	8.3961735e-05
179	0xb9e5171a	-0.00043695496
180	0x3710df9f	8.635135e-06
181	0xb9e1707d	-0.00042999155
182	0x36f63545	7.3375727e-06
183	0x38851d1b	6.3473555e-05
184	0xb7bc1a9a	-2.2423734e-05
185	0x3946e6f6	0.00018968791
186	0xb9f0444f	-0.0004582726
187	0x397d3e0a	0.00024151072
188	0x38563905	5.107468e-05
189	0x38d01954	9.9229306e-05
190	0x399fcdb1	0.00030480095
191	0xb8767252	-5.875744e-05
192	0xb8c87ae6	-9.559635e-05
193	0x398081a0	0.0002451064
194	0x3795ce77	1.7858327e-05
195	0xb8ae3d0b	-8.308337e-05
196	0xb8099d2b	-3.280972e-05
197	0xb7b81879	-2.1945905e-05
198	0xb84e68b0	-4.9211725e-05
199	0x35e35a53	1.6939106e-06
200	0xb773540a	-1.4503496e-05
201	0x381d08e2	3.743999e-05
202	0xb7351983	-1.0794381e-05
203	0x378a8143	1.6511074e-05
204	0x383d22b3	4.5093428e-05
205	0xb85dfe69	-5.2927444e-05
206	0x37f8abdc	2.9643932e-05
207	0xb7525363	-1.253639e-05
208	0xb7cc85fa	-2.4381083e-05
209	0x3817897f	3.612926e-05
210	0x3782f33f	1.5610478e-05
211	0xb7e66b5e	-2.7468133e-05
212	0xb8315b78	-4.2285275e-05
213	0x37f12700	2.87476e-05
214	0xb8873657	-6.447423e-05
215	0xb7f39b50	-2.904018e-05
216	0xb774d1db	-1.4592394e-05
217	0xb8a125f2	-7.684146e-05
218	0x381cb8db	3.736546e-05
219	0xb72f7a60	-1.04593055e-05
220	0x36112494	2.1627975e-06
221	0xb82c685b	-4.1105184e-05
222	0xb7afcda5	-2.0957386e-05
223	0xb827cd57	-4.000714e-05
224	0x380b696e	3.323837e-05
225	0xb7b3b059	-2.1420581e-05
226	0xb7c622bd	-2.3619616e-05
227	0xb829c989	-4.0480434e-05
228	0xb75b21a6	-1.3061252e-05
229	0xb783e64b	-1.5723655e-05
230	0x3761af14	1.3451809e-05
231	0xb80ccd29	-3.356967e-05
232	0x37acc997	2.059787e-05
233	0xb9a36e65	-0.00031172033
234	0xb8ad2e92	-8.257957e-05
235	0xb7c0e603	-2.2995291e-05
236	0x380fedcf	3.4315333e-05
237	0x37267048	9.920514e-06
238	0x392bbd38	0.0001637832
239	0xb84dc54c	-4.9059556e-05
240	0x3823311d	3.890797e-05
241	0x36eb7bcc	7.0179576e-06
242	0xb6a0baff	-4.790141e-06
243	0xb8157f12	-3.564271e-05
244	0xb92eabfe	-0.00016658005
245	0xb7f57b86	-2.9263796e-05
246	0xb7658b6d	-1.3681926e-05
247	0x3849baa5	4.809596e-05
248	0x38f556df	0.000116986914
249	0x3799da58	1.8340696e-05
250	0xb8383c78	-4.3925334e-05
251	0x37baf608	2.2287495e-05
252	0xb66a25b2	-3.4890659e-06
253	0x38760ff6	5.8665835e-05
254	0x380893f9	3.2562737e-05
255	0x37bc1b9d	2.2424205e-05

0.global_feat.1.0.0.fn.0.keys.bias f4 [64]
0	0xb0b78de9	-1.3355336e-09
1	0x32c90d40	2.3405505e-08
2	0x30d7b0c5	1.569355e-09
3	0xb82b8558	-4.0893763e-05
4	0xaf90ee1f	-2.6362643e-10
5	0xb1f81763	-7.2204087e-09
6	0xb2caebcb	-2.3623121e-08
7	0x33033153	3.0545674e-08
8	0x329e2564	1.8410624e-08
9	0x37b1dc6f	2.1202692e-05
10	0xb828db4c	-4.0258557e-05
11	0xb99c36eb	-0.00029795556
12	0xb0807922	-9.347654e-10
13	0x313ff32c	2.7932385e-09
14	0xb3572586	-5.0092716e-08
15	0xb7d862ad	-2.5795156e-05
16	0xba2d5ecd	-0.00066135527
17	0xb0107d9b	-5.256539e-10
18	0xb3aa6570	-7.934693e-08
19	0xafb43656	-3.2780417e-10
20	0x310f4a85	2.0851598e-09
21	0x36e3839d	6.780449e-06
22	0x30e7f442	1.6876884e-09
23	0x3813f784	3.5278048e-05
24	0x3824503d	3.9175375e-05
25	0xb7de2dcc	-2.6485788e-05
26	0x337f1fba	5.940067e-08
27	0x3281a1bb	1.5091123e-08
28	0xb145db4a	-2.8791924e-09
29	0x321015b4	8.386838e-09
30	0x32d3cb30	2.4656032e-08
31	0xb1bc3ae1	-5.478214e-09
32	0xb39d113d	-7.314018e-08
33	0x36f0e6bb	7.179418e-06
34	0x30f638d0	1.7915003e-09
35	0xb13dfdb7	-2.764734e-09
36	0xb0da6558	-1.5890391e-09
37	0xb13e5cea	-2.7701454e-09
38	0x30f8f2f4	1.8113426e-09
39	0xb3af4ba0	-8.1628286e-08
40	0x2fbd78c2	3.4464703e-10
41	0x30ea8510	1.706356e-09
42	0xb0b3033f	-1.3024887e-09
43	0x30f84f20	1.8066864e-09
44	0xb12afb84	-2.4881226e-09
45	0x32e1e94b	2.6299537e-08
46	0xb12f842b	-2.554098e-09
47	0x30cf5768	1.5086075e-09
48	0x374044f9	1.1460151e-05
49	0xb0bdb3ba	-1.3802641e-09
50	0xb3245f7f	-3.827108e-08
51	0x30a0460d	1.1661442e-09
52	0x308ed4bb	1.0392321e-09
53	0x37539701	1.2611738e-05
54	0x37d1251d	2.4932024e-05
55	0x33956dbf	6.958316e-08
56	0x3383bea4	6.13484e-08
57	0x32721408	1.40908085e-08
58	0xb12e1f7b	-2.5338227e-09
59	0xb812340e	-3.4857592e-05
60	0x3129a17d	2.4684532e-09
61	0x30ed59fa	1.7269592e-09
62	0x302ca724	6.2810757e-10
63	0xb0e971e1	-1.6985348e-09
